models/from_docker/trained_modelV1.pt (torch, 973791 bytes, 8 tensors)

fc1.weight f4 [256, 784]
0	0x3c8904df	0.016725956
1	0x3d3b34f9	0.045704816
2	0x3bbe59e2	0.0058090547
3	0x3d0bfbd0	0.034175694
4	0x3bf7f22f	0.0075667123
5	0x3b2556b1	0.0025228674
6	0xbb18f795	-0.002334093
7	0x3c099d5b	0.008399333
8	0x3d353c89	0.044247184
9	0x3d19660a	0.037450828
10	0xbc9e60e9	-0.01933332
11	0x3d275466	0.040851973
12	0xbcc9f27f	-0.024651764
13	0x3c982318	0.018571422
14	0x3cad3c41	0.021146895
15	0x3ca9f7ba	0.020748008
16	0x3b34ccbe	0.0027587856
17	0xbb74c76e	-0.0037350315
18	0x3d326e73	0.043562364
19	0x3d3993c6	0.045306943
20	0xb9878e3c	-0.0002585518
21	0x3c9c633a	0.019090284
22	0x3ac52c57	0.0015043122
23	0xbc0a34b6	-0.008435419
24	0xbca6ede4	-0.020377107
25	0x3d2100e2	0.039307483
26	0xbb410a33	-0.0029455542
27	0xbb540302	-0.0032350426
28	0x3cbabee1	0.022796096
29	0x3ca5e9a9	0.02025302
30	0x3c5ab736	0.013349345
31	0xbcc86133	-0.02446041
32	0x3c8928eb	0.016743144
33	0xbbde23dd	-0.0067791776
34	0x3d28a921	0.04117692
35	0x3cd34d34	0.02579365
36	0xbcbdb798	-0.023158833
37	0xbb7cae17	-0.0038555914
38	0x3d09cd07	0.033642795
39	0x3aea046e	0.0017854103
40	0xbcada6a0	-0.021197617
41	0x3cef7f85	0.02923561
42	0x3cf33991	0.029690536
43	0x3d391e37	0.04519483
44	0x3c1ab4d2	0.009442525
45	0xbbf8af77	-0.0075892764
46	0xbcb3c09a	-0.021942426
47	0x3d036045	0.03207423
48	0x3cb03082	0.021507505
49	0x3aaf0e66	0.0013355731
50	0xbc74d00b	-0.014942179
51	0x3cf8a5cc	0.030352496
52	0xbcc601ad	-0.024170721
53	0x3d184c1e	0.037181966
54	0x3cdddac9	0.027081864
55	0xbbfe7ca5	-0.0077663236
56	0xbbbfb1a7	-0.005850035
57	0x3ca1d6b6	0.019755702
58	0x3c847100	0.016167164
59	0x3c081573	0.008305895
60	0x3cb46e26	0.02202518
61	0x3d002df3	0.03129382
62	0x3b6c6ec2	0.003607676
63	0xbcba8479	-0.022768246
64	0x3c604124	0.013687406
65	0xbca79609	-0.020457285
66	0xbcbbc2db	-0.022920063
67	0xbc8d0ec2	-0.017218951
68	0x3d5c6291	0.053804938
69	0x3d1b2862	0.03788031
70	0xb8a3c520	-7.809163e-05
71	0x3d31867e	0.043341152
72	0x3d1afd99	0.037839506
73	0xbb9b8858	-0.004746478
74	0x3d074853	0.033027958
75	0xbcac98a7	-0.021068884
76	0xbc713f61	-0.014724583
77	0x3c896e8b	0.016776344
78	0x3cd622b3	0.026139593
79	0x3d1323f4	0.03592296
80	0xbca08b3b	-0.01959764
81	0xbca75f14	-0.020431079
82	0xbc07237a	-0.008248204
83	0xbb6c6483	-0.0036070652
84	0xbc4587f5	-0.01205634
85	0x3b958ec4	0.004564138
86	0xbc82e0b9	-0.015976297
87	0xbc33561b	-0.010945822
88	0x3d39b1d3	0.045335602
89	0xbbb7167d	-0.0055873976
90	0x3cd58513	0.026064431
91	0xbc9f6d78	-0.019461378
92	0xbc93f450	-0.018060833
93	0x3d37e41b	0.044895273
94	0x3c842893	0.016132629
95	0x3c896fcc	0.016776942
96	0x3d3f7c08	0.046749145
97	0x3d921d31	0.07134474
98	0x3c08bca3	0.008345756
99	0x3ce33d0d	0.027739072
100	0x3d0bfaef	0.034174856
101	0xbccda373	-0.025102353
102	0xba81e14d	-0.0009909064
103	0xbca8a677	-0.02058719
104	0xbd2470ec	-0.040146753
105	0xbcef4f7b	-0.029212704
106	0x3c2f8b35	0.010714342
107	0x3cba382c	0.022731863
108	0x3d174b6b	0.03693716
109	0x3d26f0e5	0.04075708
110	0x3c9e0210	0.019288093
111	0x3d39250b	0.045201343
112	0x3c82f073	0.015983796
113	0x3cbeb2b8	0.02327858
114	0xbbcb42fd	-0.006203054
115	0xbb903d04	-0.004401805
116	0x3c890ced	0.016729796
117	0xbcd17ecd	-0.025573159
118	0xb9b0d8d1	-0.00033730877
119	0x3c3d40f3	0.01155113
120	0xbb0a44fd	-0.002109825
121	0x3adbdcc6	0.001677417
122	0x3cdc07d3	0.0268592
123	0x3d0d0c13	0.034435343
124	0x3cd04213	0.025422132
125	0x3d7c8cce	0.06165772
126	0x3deeed29	0.116663285
127	0x3d8537e3	0.065048
128	0xbb54cfcd	-0.0032472492
129	0xbd6217be	-0.055198424
130	0xbdc2aca9	-0.095055886
131	0xbb4a3bbb	-0.0030858356
132	0x3c272b93	0.01020326
133	0xbc92623f	-0.017869113
134	0x3bdf7aab	0.006820043
135	0x3ccd66fd	0.025073523
136	0xbcc332ab	-0.023827871
137	0xbc400818	-0.01172068
138	0xbb1803af	-0.0023195555
139	0x3cc4123d	0.023934478
140	0x3d1838c4	0.03716351
141	0x3cc10218	0.023560569
142	0x3cacc614	0.021090545
143	0xbcb41fbe	-0.021987792
144	0xbc5b8cd3	-0.013400274
145	0xbc94ca5b	-0.018162897
146	0xbc5f190a	-0.01361681
147	0xbccc5f58	-0.024947807
148	0xbbf8eedd	-0.007596834
149	0x3c54537c	0.012959357
150	0x3ced9ae0	0.029004514
151	0x3ce659fa	0.028119076
152	0x3d5a8304	0.053347602
153	0x3d377fbd	0.044799555
154	0x3e01ba82	0.12668803
155	0x3dd61676	0.10453503
156	0xbd112cc9	-0.0354431
157	0xbd203ab8	-0.0391185
158	0xbcd8c968	-0.026463225
159	0x3c60825a	0.013702953
160	0xbc6fae9e	-0.014629034
161	0x3c326992	0.010889428
162	0x3bd2b4c9	0.0064302427
163	0xbaa4efcf	-0.0012583676
164	0x3be72ebf	0.007055133
165	0xbcae54e8	-0.02128072
166	0x3d339449	0.043842588
167	0x3c370988	0.011171706
168	0xbca13b26	-0.019681524
169	0xbcc8eb9f	-0.024526415
170	0x3b8b507c	0.004251538
171	0x3c8138c2	0.015774135
172	0xbce63644	-0.028102048
173	0xbce3dec4	-0.027816184
174	0x3c945621	0.018107476
175	0xbced3095	-0.02895383
176	0xbd6acb77	-0.057322945
177	0xbd709086	-0.05873158
178	0x3d1e5244	0.038652673
179	0x3d349391	0.044086043
180	0xbd500f42	-0.0507958
181	0x3d242196	0.040071093
182	0x3c6d0175	0.014465679
183	0x3b9fe661	0.004879758
184	0x3d580a4f	0.052744206
185	0x3dabd487	0.08390146
186	0x3d665f14	0.056243017
187	0xbd6fb519	-0.058522318
188	0xbd1aaa82	-0.037760265
189	0xbd046816	-0.032325827
190	0xbca211ab	-0.019783815
191	0xbc325e96	-0.010886809
192	0xbc0d7f68	-0.008636333
193	0x3ccca8f3	0.024982905
194	0x3d259159	0.040421817
195	0x3b3a775a	0.0028452487
196	0x3bd67558	0.00654475
197	0xbca4650d	-0.020067716
198	0x3c1cc5ff	0.00956869
199	0x3c03644a	0.008019516
200	0xbc95209e	-0.01820403
201	0xbd1acb27	-0.037791397
202	0xbcd459f3	-0.025921797
203	0xbce1b096	-0.027550023
204	0xbcb80870	-0.02246496
205	0xbd9dfa36	-0.077137396
206	0x3d79afbf	0.06095862
207	0x3d14a90e	0.036294036
208	0x3d631fc6	0.055450223
209	0x3d4e526d	0.050371576
210	0x3a246351	0.0006270903
211	0xbd080e41	-0.03321672
212	0xbe09fe49	-0.13475908
213	0xbd3f3ddd	-0.046689857
214	0x3c86a8c9	0.016437905
215	0xbd83bea8	-0.06432849
216	0xbdc01981	-0.093798645
217	0xbd360e02	-0.044446953
218	0xbd0a92bf	-0.033831354
219	0xbd30443a	-0.043033816
220	0xbd32cc4e	-0.04365187
221	0xbc2b5175	-0.010456433
222	0xbcf3283d	-0.029682273
223	0xbb5e561a	-0.0033925832
224	0xbbe3d52c	-0.0069529023
225	0x3b9afb59	0.00472967
226	0xbba83cb8	-0.0051341914
227	0x3ce45e10	0.027876884
228	0x3bf00404	0.0073246974
229	0xbd3b619e	-0.045747392
230	0xbcc923d5	-0.024553219
231	0xbcc78dea	-0.024359662
232	0xbcd655ae	-0.026163902
233	0xbdd1449a	-0.10218163
234	0xbba71a7c	-0.0050995927
235	0x3c0975c4	0.008389894
236	0x3dc66097	0.09686392
237	0x3c7a10a4	0.0152627565
238	0x3c5823b7	0.013192109
239	0x3c917381	0.017755272
240	0xbd1cfb8c	-0.03832583
241	0x3d1632a8	0.036669403
242	0xbb5d7f12	-0.0033797664
243	0xbde36b8a	-0.11104496
244	0xbdc7570b	-0.09733399
245	0xbd7923e3	-0.06082524
246	0xba954f51	-0.0011391436
247	0xbca21d47	-0.019789351
248	0xbc91ae2e	-0.01778325
249	0xb98d47aa	-0.0002694701
250	0x3d0a2455	0.033726055
251	0x3b293087	0.0025816278
252	0xbc73fb85	-0.01489151
253	0x3ce8c91d	0.02841621
254	0x3cb3d203	0.021950727
255	0xbcd9156a	-0.026499469

fc1.bias f4 [256]
0	0xbd7a7225	-0.061144013
1	0xbd4733f0	-0.048633516
2	0xbd277a7f	-0.040888306
3	0x3ccc1397	0.024911685
4	0xbce1e671	-0.027575703
5	0xbd673817	-0.056449976
6	0xbd436175	-0.047700364
7	0x3b6467d1	0.0034851918
8	0xbd812280	-0.063054085
9	0x3c9ac5e8	0.018893197
10	0x3bc315de	0.0059535345
11	0x3c7c7709	0.01540924
12	0x3cbacda2	0.022803131
13	0xbd111ef5	-0.035429914
14	0xbcb770f9	-0.022392737
15	0xbb366916	-0.0027833632
16	0xbd16592b	-0.03670613
17	0xbcbd23d5	-0.023088375
18	0xbcf6e979	-0.030140625
19	0xbd1ac654	-0.037786797
20	0x3cc95d38	0.024580583
21	0xbc1631ee	-0.009167178
22	0xbcc479ac	-0.023983799
23	0xbc8ec986	-0.017430078
24	0x3d4c1197	0.049821462
25	0xbc1d213c	-0.009590443
26	0x3b23c936	0.0024991757
27	0x3bd8a51a	0.0066114785
28	0xbd0c57cf	-0.03426343
29	0xbc9167c9	-0.017749684
30	0x3c91c932	0.017796133
31	0xbc927ec8	-0.01788272
32	0xbd05ca0c	-0.03266339
33	0x3d1b576f	0.03792518
34	0x3aa067e5	0.0012237994
35	0x3c17f169	0.009273865
36	0x3b77dc97	0.003782069
37	0xbd243911	-0.040093485
38	0xbd301ca3	-0.04299606
39	0x3c893d39	0.016752826
40	0xbd648dab	-0.055799168
41	0xbce90956	-0.028446835
42	0xbc3b3693	-0.011426586
43	0xbd43fcd1	-0.047848526
44	0xbd6024ba	-0.054722525
45	0xbcfe6388	-0.03105332
46	0xbc4138b1	-0.011793301
47	0x3b378798	0.0028004404
48	0x3b28ffe8	0.0025787298
49	0xbd82ef85	-0.06393341
50	0xbcecd19a	-0.02890854
51	0x3c39d5ba	0.01134246
52	0xbd2dcb33	-0.042430114
53	0xbcc94d82	-0.024573091
54	0xbd8d3d40	-0.06896448
55	0xbd46a7fc	-0.048500046
56	0x3bdb5b80	0.0066942573
57	0xbd4bb2f2	-0.049731202
58	0xbc6eeec9	-0.014583298
59	0xbd3e5269	-0.04646531
60	0xbc6e1031	-0.0145302275
61	0xbcf18f53	-0.029487288
62	0xbcb2d07d	-0.02182793
63	0xbcfe9b4e	-0.031079914
64	0xbc8503d0	-0.01623717
65	0xbd2a4675	-0.0415711
66	0xbc9a93e0	-0.01886934
67	0xbcabfd0d	-0.020994687
68	0xbd599176	-0.053117238
69	0xbd64b30e	-0.055834822
70	0xbcc926ed	-0.024554694
71	0xbd47cba6	-0.0487782
72	0x3bc390d3	0.005968192
73	0xbd61543c	-0.055011973
74	0xbd27456e	-0.040837698
75	0x3c19be99	0.009383821
76	0xbc7b6ddd	-0.015346018
77	0x3b809d9b	0.003925038
78	0x3ca41656	0.020030182
79	0xbc9af016	-0.01891331
80	0xbc08627f	-0.008324265
81	0x3b0c2ef1	0.0021390284
82	0x3c086e16	0.008327028
83	0x3bd413be	0.00647208
84	0x3c13d3c2	0.009022655
85	0x3bcda0fa	0.0062752934
86	0x3c15bc6d	0.0091391625
87	0xbcdc4f6e	-0.026893344
88	0x3c95cbb4	0.01828561
89	0x3b8779bb	0.0041343844
90	0xbbb460cb	-0.0055047027
91	0x3a8164a4	0.0009871912
92	0x3cc268b3	0.023731565
93	0x3b32a426	0.0027258485
94	0x3c81ca0a	0.01584341
95	0x3cb82951	0.022480639
96	0xbc928715	-0.017886678
97	0xbcf29906	-0.029613983
98	0xbd15a383	-0.03653289
99	0xbcdd498d	-0.02701261
100	0xbc2395e0	-0.009984463
101	0xbd8eea7b	-0.06978317
102	0xbd5ce0fd	-0.053925503
103	0xbd1775c5	-0.03697755
104	0x3d80f817	0.062973194
105	0xbd546364	-0.0518526
106	0xbdc4f50c	-0.096170515
107	0xbb79027f	-0.0037995873
108	0x3b641bd3	0.0034806624
109	0xbcdc15f3	-0.026865935
110	0xbd6ffbc5	-0.058589716
111	0xbcefd10d	-0.029274488
112	0xbc513d1a	-0.012770915
113	0x3be1b1a4	0.0068876315
114	0xbd107cc8	-0.03527525
115	0x3bf225c3	0.0073897555
116	0xbbd34af5	-0.0064481446
117	0xba8d8064	-0.001079571
118	0xbcb65400	-0.022256851
119	0xbd282f7f	-0.04106092
120	0xbd3ef90c	-0.04662423
121	0xbc6dc2d6	-0.014511785
122	0xbca4073f	-0.020022986
123	0xbd337791	-0.0438152
124	0xbcb83da5	-0.022490332
125	0xbaf5c8e3	-0.0018751886
126	0xbc6d843d	-0.01449686
127	0x3cbd966b	0.023143014
128	0xbd0e90f8	-0.03480622
129	0x3c2c20da	0.010505879
130	0x3d2e8179	0.042603943
131	0xbc0f21b9	-0.008736067
132	0x3cbe67b2	0.023242805
133	0xbd3429e4	-0.043985263
134	0xbc944dc8	-0.018103495
135	0x3befce57	0.007318299
136	0xbd0a507a	-0.033768155
137	0x3cc0cd40	0.02353537
138	0xbcc522f8	-0.024064526
139	0xbc5efd3c	-0.0136101805
140	0x3d0c5a8e	0.034266047
141	0x3a105e93	0.0005507257
142	0xbd87a384	-0.06622985
143	0xbc930f7f	-0.017951725
144	0xbce29303	-0.027657991
145	0xbcc3382c	-0.023830496
146	0xbc68ce85	-0.014209394
147	0xbcacc70e	-0.02109101
148	0xbe0c4795	-0.13699181
149	0x381f7017	3.8012946e-05
150	0xbcdd93b7	-0.027047975
151	0x3cde1dd7	0.027113838
152	0xbd131e39	-0.035917494
153	0xbcd6bcbf	-0.026213048
154	0xbd6e0eb7	-0.058119502
155	0xbd87c133	-0.06628647
156	0xbd9d44c9	-0.07679135
157	0xbce81bd3	-0.02833358
158	0xbc9eb1e0	-0.019371927
159	0xbd30568b	-0.043051284
160	0x3c204856	0.009782871
161	0xbccd1357	-0.025033636
162	0xbd71601c	-0.058929548
163	0xbd59ec1f	-0.0532037
164	0xbd85587e	-0.06511019
165	0xbd5e0911	-0.054207865
166	0xbc9d6f7f	-0.019218205
167	0xbc249c72	-0.010047065
168	0xbd1eb26a	-0.038744368
169	0x3becbe28	0.007224817
170	0xbd101bc3	-0.035182726
171	0xbcc9e9fe	-0.024647709
172	0xbbcd5700	-0.0062664747
173	0x3b1d01b0	0.0023957305
174	0xbd0bb7c2	-0.034110792
175	0xbc8ac607	-0.01694013
176	0xbd31af18	-0.043379873
177	0xbd0d4a9e	-0.03449499
178	0xbd49f276	-0.049303494
179	0xbcfe1966	-0.03101797
180	0xbd0fdd68	-0.03512326
181	0xbcd5c7e9	-0.026096301
182	0xbbbd29a9	-0.0057727885
183	0xbcfac6ac	-0.030612312
184	0xbcd2c1e3	-0.025727218
185	0xbcbce893	-0.023060119
186	0xbd38e11a	-0.04513655
187	0xbd0e96f2	-0.03481192
188	0xbd14c0be	-0.036316626
189	0xbd069460	-0.032856345
190	0x3c73f4dc	0.014889922
191	0x3c379b97	0.011206529
192	0xbcf8d56b	-0.030375203
193	0xbd57380f	-0.052543696
194	0xbd4dbfe7	-0.05023184
195	0x3ba20324	0.004944222
196	0xbcb6535c	-0.022256546
197	0x3c276b3e	0.01021844
198	0xbd644f17	-0.05573949
199	0xbd718bbb	-0.058971148
200	0xbb9b7b74	-0.0047449414
201	0xbd0f8965	-0.03504314
202	0xbd28f941	-0.041253332
203	0x3af6ee13	0.0018839262
204	0x3c921eb3	0.017836904
205	0xbd716043	-0.058929693
206	0xbd685919	-0.056725595
207	0xbd77f892	-0.06053979
208	0xbce24ea6	-0.027625393
209	0xbd8545fe	-0.065074906
210	0xbccaebef	-0.024770705
211	0xbccef48e	-0.025263097
212	0xbc1e884a	-0.0096760485
213	0xbd3515af	-0.044210132
214	0xbcd56c10	-0.026052505
215	0xbd2f2453	-0.04275925
216	0xbc85e389	-0.016343849
217	0xb972ef4b	-0.00023168062
218	0xbd12c5ad	-0.03583305
219	0xbcb38e57	-0.021918459
220	0x3c99962d	0.018748367
221	0xbc0cd95f	-0.008596747
222	0xbc99eb8d	-0.018789077
223	0xbcf8da16	-0.030377429
224	0xbca6ff49	-0.020385401
225	0xbbfcf225	-0.0077192956
226	0xbd68a1d5	-0.05679496
227	0xbc96b75e	-0.018397983
228	0xbd2de0c7	-0.042450693
229	0x3c8d3a36	0.017239671
230	0xbcf7c607	-0.030245794
231	0xbd2b1735	-0.04177018
232	0xbda7f15e	-0.08200334
233	0xbdb42a45	-0.08797125
234	0xbdae5be3	-0.0851362
235	0xbd0253f3	-0.03181834
236	0xbc3f656f	-0.0116818985
237	0xbca39614	-0.019969024
238	0xbc9ba017	-0.018997235
239	0xbd151cb5	-0.03640433
240	0xbd0fbb44	-0.0350907
241	0xbd726c2d	-0.059185196
242	0x3c69d74d	0.014272523
243	0xbcdd94e9	-0.027048545
244	0xbca5b08c	-0.020225786
245	0xbd839473	-0.06424799
246	0xbd1c3009	-0.038131747
247	0x3caa04fc	0.02075433
248	0xbd291b6c	-0.041285917
249	0xbbba2fd7	-0.0056819725
250	0xbd73eabf	-0.059550043
251	0xbcec8b85	-0.028875122
252	0xbcd847e3	-0.026401466
253	0xbbf969c3	-0.0076114847
254	0xbd2b8d8e	-0.041883044
255	0xbdb53b20	-0.08849168

fc2.weight f4 [128, 256]
0	0x3d0fed4f	0.035138424
1	0xbe25774b	-0.16158788
2	0x3c9d9a2c	0.019238554
3	0x3d6a7fbf	0.057250734
4	0xbe082727	-0.13296185
5	0x3dfa75fe	0.122295365
6	0xba22e76c	-0.0006214294
7	0xbdac9692	-0.084271565
8	0x3d6fea25	0.058572907
9	0x3cc43630	0.02395162
10	0xbd5d3d28	-0.0540134
11	0xbd9c9f8d	-0.076476194
12	0xbdcd3863	-0.100205205
13	0x3d267711	0.040640894
14	0xbd3b66f7	-0.04575249
15	0xbd861ab7	-0.06548064
16	0x3d8793a6	0.066199586
17	0x3d368afb	0.044566136
18	0xbd986598	-0.074412525
19	0xbd4e47aa	-0.050361313
20	0xbdd69d62	-0.10479237
21	0xbd25b404	-0.04045488
22	0x3d636272	0.055513807
23	0xbe08aa90	-0.13346314
24	0xbe160d74	-0.1465357
25	0x3bd36bb1	0.006452047
26	0x3b1ffb6d	0.0024411336
27	0xbcd88ee6	-0.026435327
28	0xbd21600d	-0.03939824
29	0x3c8ac17b	0.016937962
30	0xbd91be98	-0.07116431
31	0xbdb49608	-0.08817679
32	0x3d486cef	0.048932012
33	0x3c29a826	0.010355031
34	0x3ca1f50b	0.019770166
35	0xbcdce599	-0.02696495
36	0x3b1ea2bf	0.002420589
37	0xbe21562b	-0.15755527
38	0x3c813de7	0.015776588
39	0x3d1449ab	0.036203068
40	0x3bd67f13	0.00654591
41	0x3c687d7d	0.014190075
42	0xbafde007	-0.0019369134
43	0x3e5bf3e7	0.2147976
44	0xbe03ce78	-0.1287173
45	0xbe6a5e20	-0.22887468
46	0xbd344865	-0.044014353
47	0xbdc55fca	-0.09637411
48	0x3e2cd8a0	0.16879511
49	0x3e895603	0.26823434
50	0x3ccc9d51	0.024977358
51	0xbc06f2a0	-0.008236557
52	0x3d491f1b	0.04910193
53	0x3d7aa381	0.061191086
54	0xbe0a5dd0	-0.13512349
55	0x3d6f0387	0.058352973
56	0xbd29f607	-0.041494396
57	0x3d36d73c	0.044638857
58	0xbd73cc1a	-0.05952082
59	0x3d9dcea3	0.077054285
60	0xbe070029	-0.13183655
61	0x3d750e1b	0.059827905
62	0xbd567ca5	-0.052364964
63	0x3c4f07ed	0.012636167
64	0xbdbf1100	-0.09329414
65	0x3d94a4b1	0.07257975
66	0xbc5f4eb2	-0.013629602
67	0x3c71ccf2	0.014758335
68	0x3d7e374e	0.06206446
69	0x3b1df50a	0.0024102353
70	0xbdc96902	-0.09834482
71	0xbc628b95	-0.013827224
72	0x3d0142e6	0.03155794
73	0x3d2ef29a	0.04271183
74	0xbe224198	-0.15845335
75	0x3dd99e66	0.10625915
76	0x3d63580e	0.055503897
77	0xbe2c5708	-0.16830075
78	0x3e114102	0.14184955
79	0xbd6a638c	-0.05722384
80	0xbc815587	-0.015787853
81	0xbd08fc78	-0.033443898
82	0xbb241eb1	-0.0025042708
83	0x3d841f27	0.06451254
84	0xbe659f68	-0.2242409
85	0x3da0cc34	0.07851449
86	0xbd1718ef	-0.036889013
87	0x3c16d43d	0.009205875
88	0xbdc4d374	-0.09610644
89	0xbceb235d	-0.028703386
90	0xbde18bd7	-0.110130005
91	0x3d029a59	0.03188548
92	0xbd64823f	-0.055788275
93	0xbdc95c22	-0.09832026
94	0x3ceb0cc5	0.028692612
95	0x3d5e2fd2	0.054244824
96	0x3d84f73b	0.06492468
97	0x3e0e13e4	0.13874775
98	0x3d1f761a	0.03893099
99	0x3e1409e8	0.14456904
100	0x3d261b2a	0.04055325
101	0xbb8bca9a	-0.0042660953
102	0xbc4dc784	-0.012559775
103	0xbdea3eb6	-0.114377424
104	0xbd7a5b53	-0.06112225
105	0x3d8ec925	0.06971959
106	0xbe06e9aa	-0.13175073
107	0x3daae33d	0.083441235
108	0x3dc98606	0.09840016
109	0xbd222a05	-0.039590854
110	0xbd6820b5	-0.056671817
111	0xbe17a227	-0.1480795
112	0x3c73496e	0.01484905
113	0xbcb71c66	-0.022352409
114	0x3ce0cb43	0.027440673
115	0xbdb1ec28	-0.08687621
116	0x3d8c12f0	0.068395495
117	0xbd3f18f6	-0.046654664
118	0xbe3e9889	-0.18612875
119	0xbba5acf4	-0.005056018
120	0xbe9163d7	-0.28396484
121	0xbd2312da	-0.0398129
122	0x3c308c6d	0.010775668
123	0x3e367b0d	0.17820378
124	0xbddca662	-0.107739225
125	0x3dad11dd	0.08450673
126	0xbddc05ec	-0.10743317
127	0xbde23eec	-0.11047158
128	0x3d4b4d7a	0.049634434
129	0x3d293409	0.04130939
130	0xbcdaad01	-0.026693823
131	0x3d185ff3	0.03720088
132	0xbda45d1a	-0.0802557
133	0xbd96e667	-0.073681645
134	0x3cd4337a	0.025903452
135	0xbce54bd3	-0.027990257
136	0xbd20e111	-0.03927714
137	0xbdad9e1d	-0.08477423
138	0x3cbdf355	0.023187319
139	0xbcc06406	-0.023485195
140	0x3c801d2b	0.015638908
141	0x3d9e3c2d	0.07726321
142	0x3d74b2fc	0.059741005
143	0xbd38d05a	-0.045120575
144	0x3e14af06	0.14519891
145	0x3da7042b	0.08155092
146	0xbd3ede16	-0.046598516
147	0xbe6728f0	-0.2257421
148	0x3c995e20	0.01872164
149	0xbd69a2bc	-0.05703996
150	0xbe8e48ec	-0.2779001
151	0xbd1c669e	-0.0381838
152	0x3b8a0b92	0.004212805
153	0xbe10f40a	-0.14155594
154	0x3e33b341	0.17548849
155	0xbd0a4cd1	-0.033764664
156	0x3e06a688	0.13149464
157	0x3d7c43fb	0.06158827
158	0x3dfc4249	0.123173304
159	0xbe2c8b09	-0.16849913
160	0xbdebe49e	-0.11518215
161	0xbd373c9c	-0.044735536
162	0xbe77a827	-0.24185239
163	0x3c8a4b86	0.016881716
164	0xbd05fca4	-0.03271164
165	0x3d4842da	0.04889188
166	0xbdcf9557	-0.10135906
167	0xbd4823b3	-0.04886217
168	0x3e8498b5	0.25897756
169	0x3c355f9a	0.0110701565
170	0xbde70cdd	-0.1128175
171	0x3b701258	0.0036632027
172	0xbdabfc9d	-0.083977915
173	0x3ddde744	0.10835126
174	0x3e122682	0.14272502
175	0xbd8d910b	-0.069124304
176	0xbdb636a2	-0.08897139
177	0xbd50c365	-0.050967593
178	0x3cfd4499	0.030916499
179	0x3db674d8	0.08909005
180	0x3d831c47	0.06401878
181	0x3dd4e5ad	0.1039537
182	0xbdfd3049	-0.12362725
183	0xbd86efc2	-0.06588699
184	0xbdd7af6a	-0.105315045
185	0x3d9e45b4	0.077281386
186	0xbe63db0c	-0.22251529
187	0xbd8e263a	-0.06940885
188	0xbd8a22ab	-0.06744894
189	0x3e0ce4c2	0.13759139
190	0xbd52cf6a	-0.051467337
191	0xbc8f7c5d	-0.017515356
192	0xbca3dccd	-0.020002747
193	0xbe2ee636	-0.17080006
194	0x3e2a7c33	0.1664894
195	0x3d9360ad	0.07196174
196	0xbdce2138	-0.1006493
197	0x3c4f89cd	0.012667132
198	0x3e44b165	0.19208296
199	0x3dc6f8eb	0.09715446
200	0x3d65f18f	0.05613857
201	0xbc725d23	-0.014792713
202	0xbd42cf15	-0.04756077
203	0x3da7fade	0.08202146
204	0xbd962551	-0.07331336
205	0x3d1837b5	0.0371625
206	0x3dacc95d	0.084368445
207	0x3d4c5078	0.04988143
208	0xba60f804	-0.0008581879
209	0xbdfad55c	-0.12247726
210	0xbe12eeb6	-0.14348873
211	0x3b2ba464	0.0026190514
212	0x3dbb52e2	0.09146668
213	0x3de21f05	0.11041073
214	0x3e0fdb5c	0.14048523
215	0xbdde9461	-0.10868145
216	0x3d187f04	0.037230507
217	0x3d00e53e	0.031468622
218	0xbdd59c25	-0.10430173
219	0x3e015c59	0.12632884
220	0x3d6ac008	0.05731204
221	0x3ccd2b82	0.02504516
222	0x3c0c074e	0.008546663
223	0x3d5e3307	0.054247882
224	0xbe44bb1a	-0.19211999
225	0xbdd54a95	-0.10414616
226	0x3d435b5b	0.047694545
227	0x3d39df0c	0.04537873
228	0xbd6a9b02	-0.057276733
229	0xbe1d35e0	-0.15352583
230	0x3dabefd9	0.08395357
231	0xbd8a67d4	-0.06758085
232	0x3dbf9c6c	0.09356007
233	0x3ddad76a	0.10685618
234	0xbe04135f	-0.12898014
235	0xbd994507	-0.07483869
236	0xbdee7a6e	-0.11644445
237	0xbe488b47	-0.1958438
238	0xbdbc093b	-0.09181448
239	0x3d5b46ba	0.053534247
240	0xbdab89c7	-0.08375888
241	0x3d13973c	0.0360329
242	0xbdc70ce7	-0.09719258
243	0x3ce8bd80	0.028410673
244	0x3cc63c0c	0.024198554
245	0xbdc97b61	-0.09837986
246	0xbd6ef352	-0.058337517
247	0xbe562a43	-0.20914559
248	0xbd685e1a	-0.056730367
249	0x3db0189b	0.08598443
250	0x3e3c357e	0.1837978
251	0x3d13234e	0.03592234
252	0xbdfd079d	-0.12354968
253	0x3c88f7d5	0.016719738
254	0xbd25ba9e	-0.040461175
255	0x3e0f371e	0.1398587

fc2.bias f4 [128]
0	0x3e71303b	0.23553555
1	0x3dcdd09e	0.10049556
2	0xbca2d5a8	-0.01987727
3	0xbd5b919c	-0.05360566
4	0x3e104817	0.1409
5	0xbd89ca79	-0.06728072
6	0x3c197835	0.0093670385
7	0x3b649b8a	0.0034882748
8	0x3c7d418c	0.015457522
9	0x3c80f992	0.015744004
10	0x3cbbf07a	0.022941817
11	0x3d07606e	0.033050947
12	0xbcd153d2	-0.025552664
13	0x3e5b5081	0.21417429
14	0x3c4fa2a0	0.01267305
15	0x3d25d98f	0.040490683
16	0x3e65faa9	0.224589
17	0x3d089c95	0.033352453
18	0x3e693b9f	0.2277665
19	0x3c847089	0.016166942
20	0x3e05e6e9	0.13076366
21	0xbda9186f	-0.082566135
22	0x3e56ce5c	0.20977157
23	0x3dcca307	0.099920325
24	0xbdedfb74	-0.116202265
25	0xbde6daa9	-0.11272175
26	0x3d1778d1	0.036980454
27	0xbd86ef58	-0.0658862
28	0x3d5ab1c4	0.053392187
29	0x3e123aff	0.14280318
30	0xbe7b04ea	-0.24513593
31	0x3e8d4846	0.27594203
32	0x3cd7defb	0.026351443
33	0xbc46def6	-0.012138119
34	0x3d1329c0	0.035928488
35	0xbcd1b367	-0.025598241
36	0xbe11340a	-0.14180008
37	0x3ca3ecf7	0.020010455
38	0xbc7d0731	-0.015443609
39	0x3afec7cf	0.001943821
40	0xbda867a2	-0.082228914
41	0xbd3d8c35	-0.04627629
42	0x3c2e542e	0.010640187
43	0x3e08762e	0.13326332
44	0x3cb844c8	0.022493735
45	0x3ccc6342	0.024949674
46	0xbd46dbd7	-0.0485495
47	0xbd3e8196	-0.0465103
48	0x3d980f19	0.07424755
49	0xbcff9724	-0.0312
50	0xbcc7f7ae	-0.024410095
51	0x3cccf265	0.025017926
52	0x3d20609f	0.039154645
53	0x3d00a770	0.03140968
54	0x3e1c073d	0.15237136
55	0xbda51870	-0.08061302
56	0x3d09e308	0.03366378
57	0xbd635635	-0.055502135
58	0xbc4413f9	-0.0119676525
59	0x3ccb28fa	0.024799813
60	0x3cc4561a	0.023966838
61	0x3d9a485c	0.07533333
62	0x3da10550	0.078623414
63	0x3c6885d7	0.014192066
64	0x3b3cd185	0.0028811407
65	0x3b13c31e	0.0022546719
66	0x3cc068ef	0.023487536
67	0x3d995e2a	0.074886635
68	0x3dccc0fe	0.09997748
69	0xbc031b0f	-0.008002057
70	0xbcee4d9b	-0.02908974
71	0x3e191d9e	0.14952704
72	0xbba05b2c	-0.004893681
73	0xbde05f41	-0.10955668
74	0xbd3e73fa	-0.046497323
75	0xbd44994a	-0.04799775
76	0xbda967f4	-0.082717806
77	0xbcfd05de	-0.030886587
78	0xbbb7cc39	-0.005609062
79	0x3dce29b2	0.100665465
80	0xbc5d0958	-0.013490997
81	0xbca3215c	-0.019913368
82	0xbdb8ebed	-0.09029374
83	0x3c8d60c3	0.017258054
84	0x3e160d5c	0.14653534
85	0xbd869fc7	-0.06573444
86	0x3ccf273f	0.025287269
87	0xbcbe0458	-0.02319543
88	0xbded3fc9	-0.11584432
89	0xbd4df358	-0.0502809
90	0x3e459afe	0.19297406
91	0xbbc2e8b8	-0.0059481524
92	0x3e6a55e5	0.22884329
93	0xbd8e530a	-0.06949432
94	0x3daf5a3c	0.08562133
95	0x3c0cc7b9	0.0085925395
96	0x3c94ba5f	0.018155275
97	0xbcd2574a	-0.025676388
98	0x3de9df1a	0.11419506
99	0xbc17aabe	-0.009257017
100	0xbdbc299b	-0.09187623
101	0x3df54e93	0.119778775
102	0xbd6cc47c	-0.05780457
103	0xbbc19352	-0.0059074545
104	0xbd9286db	-0.07154628
105	0xbd6053fc	-0.054767594
106	0x3dcc3c2f	0.099724166
107	0x3e44488b	0.19168298
108	0xbbf61091	-0.007509299
109	0xbc818577	-0.015810711
110	0x3d1ac3e8	0.037784487
111	0xbdada569	-0.08478815
112	0xbd24e204	-0.040254608
113	0xbca7f40c	-0.020502113
114	0xbc940324	-0.018067904
115	0x3dba7642	0.09104587
116	0xbcdbbe98	-0.02682428
117	0xbdba4902	-0.090959564
118	0xbb946b80	-0.0045294166
119	0xbde809c1	-0.113299854
120	0xbe0e8cac	-0.1392085
121	0xbdc8cf8f	-0.09805214
122	0xbcc2e32d	-0.023789966
123	0xbcb81e8f	-0.022475509
124	0x3d357a97	0.044306364
125	0x3d9d38a4	0.07676819
126	0xbd801b86	-0.0625525
127	0xbd1881fe	-0.037233345

fc3.weight f4 [64, 128]
0	0x3d57c1b9	0.052674983
1	0x3cb72529	0.022356587
2	0x3d4ee9ef	0.050516065
3	0xbd66eec7	-0.05638006
4	0x3db37b4a	0.0876375
5	0xbd8a1097	-0.067414455
6	0xbd1772a9	-0.036974583
7	0xbd01ea55	-0.031717617
8	0x3d8eec9d	0.06978724
9	0x3d0989ab	0.033578556
10	0x3c396069	0.01131449
11	0x3d860c32	0.06545295
12	0x3d8b4674	0.06800547
13	0x3d6a38b9	0.057183
14	0x3d151d15	0.036404688
15	0xbd8cae88	-0.06869227
16	0xbdba71ca	-0.09103735
17	0x3c87d8ec	0.016582929
18	0x3da6ca46	0.08144049
19	0xbdc7cf65	-0.09756354
20	0x3d17161d	0.036886323
21	0x3d8f496a	0.069964245
22	0x3d195291	0.037432257
23	0xbd72bc4d	-0.05926161
24	0xbd519dfb	-0.051176053
25	0xbe0b1007	-0.13580333
26	0x3d23d6dd	0.03999983
27	0x3e0d3567	0.13789903
28	0xbd55c393	-0.052188467
29	0xbbc17c46	-0.005904707
30	0xbdcc4e9c	-0.09975931
31	0x3db2d3c3	0.087317966
32	0x3d4835e5	0.048879523
33	0x3c9a5e68	0.018843845
34	0x3d44d617	0.048055734
35	0xbc91096f	-0.017704694
36	0xbcc6dcdd	-0.024275238
37	0xbcdcf9fa	-0.026974667
38	0x3d2d601c	0.042327985
39	0x3bf6e245	0.0075342976
40	0x3d8c3cc0	0.06847525
41	0x3d18ceeb	0.037306707
42	0x3de93e31	0.11388815
43	0x3dfb79aa	0.12279065
44	0xbc1b90ad	-0.009494943
45	0xbc19196a	-0.009344438
46	0xbd50d80a	-0.05098728
47	0x3c60c6e3	0.013719293
48	0x3da26bd2	0.07930721
49	0x3cff6f6b	0.031181058
50	0xbddf3a01	-0.10899735
51	0xbc805bc0	-0.01566875
52	0x3d6d7942	0.05797697
53	0x3bbabb37	0.0056985873
54	0x3d12582b	0.035728615
55	0x3d5ef4de	0.054432742
56	0x3d39faa2	0.045405038
57	0xbc2c242c	-0.010506671
58	0xbdb34b7d	-0.087546326
59	0xbd1871e6	-0.037217997
60	0xbddf3da0	-0.10900426
61	0x3d4e5c82	0.05038119
62	0x3db9708c	0.0905467
63	0x3cb6b7ec	0.022304498
64	0x3d3b95fc	0.045797333
65	0x3d467187	0.04844811
66	0xbe3fa055	-0.18713506
67	0x3d81f56b	0.06345638
68	0x3d097b4b	0.033564847
69	0xbda7b354	-0.08188501
70	0xbd6e30dc	-0.058152065
71	0xbad7f083	-0.0016474876
72	0xbd98a28a	-0.07452877
73	0xbe327334	-0.17426759
74	0xbd59bcad	-0.05315845
75	0x3cda8614	0.026675262
76	0xbda6d600	-0.08146286
77	0x3d37ace0	0.0448426
78	0x3da2eb00	0.07954979
79	0xbde882db	-0.11353084
80	0xbd385ba1	-0.04500926
81	0xbd74feb5	-0.05981322
82	0xbc9c791c	-0.019100718
83	0x3d9aa80d	0.075515844
84	0x3d905a27	0.07048445
85	0x3db6dcf0	0.08928859
86	0xbd73abde	-0.059490077
87	0xba3daf75	-0.0007235923
88	0xbe228600	-0.1587143
89	0x3da21788	0.079146445
90	0x3da32ad6	0.07967155
91	0xbcffff60	-0.031249702
92	0x3d710b6c	0.058848783
93	0xbdcbda14	-0.099537045
94	0x3d172938	0.036904544
95	0x3d91b3c3	0.07114365
96	0xbe0000c7	-0.12500297
97	0x3d65cbfa	0.05610273
98	0x3d589735	0.052878577
99	0xbd479af8	-0.048731774
100	0xbd628827	-0.055305626
101	0xbd594227	-0.053041603
102	0xbd929c4f	-0.0715872
103	0xbe0b73d1	-0.13618399
104	0xbc7e4a75	-0.015520682
105	0x3dfe73c6	0.12424426
106	0x3c3b7831	0.01144223
107	0x3dfe38ca	0.124131754
108	0x3d1544a1	0.036442403
109	0xbe3cf91e	-0.18454406
110	0x3dd3af0e	0.103361234
111	0x3cdfc0a1	0.027313532
112	0x3d90e83e	0.07075547
113	0x3d9f4ab0	0.077779174
114	0xbe02c13c	-0.12769026
115	0xbc803422	-0.015649859
116	0x3d972d30	0.07381666
117	0x3d87b243	0.066257976
118	0xbdbea02a	-0.093078926
119	0xbd18b490	-0.037281573
120	0xbe3cb8f4	-0.18429929
121	0x3d4c23eb	0.04983894
122	0x3dd07e87	0.10180383
123	0x3d2af058	0.041733116
124	0xbdad5ab3	-0.08464565
125	0x3dc7136c	0.09720501
126	0x3cb9a534	0.022661783
127	0x3db661f2	0.089054
128	0xbe14cc83	-0.1453114
129	0xbce75999	-0.028240966
130	0xbb8413ee	-0.004030696
131	0xbd8e779e	-0.06956409
132	0xbdd7377c	-0.1050863
133	0xbcfc8ff2	-0.030830357
134	0x3d7c3a87	0.061579254
135	0xbd972b12	-0.07381262
136	0xbd8d1fc5	-0.06890825
137	0xbdca83ec	-0.09888443
138	0xbd0cc590	-0.034368098
139	0x3d012032	0.031524844
140	0x3d835e24	0.0641444
141	0x3d1e34e6	0.038624667
142	0xbc656640	-0.014001429
143	0x3d865699	0.06559486
144	0x3c048433	0.008088159
145	0x3dcc390b	0.099718176
146	0xbcb7d8c3	-0.022442227
147	0x3d808655	0.06275622
148	0xbd1c621d	-0.038179506
149	0x3cee6fe8	0.029106095
150	0x3e12641a	0.14295998
151	0x3dc1d06f	0.09463584
152	0xbda67f4f	-0.08129751
153	0xbd5ca13b	-0.0538647
154	0x3db74b86	0.08949952
155	0x3e29fdb2	0.16600683
156	0xbd8c1718	-0.06840342
157	0xbd9a16e7	-0.075238995
158	0x3b9c756c	0.00477474
159	0x3d911436	0.07083933
160	0xbd5f3f9a	-0.054504015
161	0x3bafcb0f	0.0053647826
162	0x3dfce9c0	0.12349272
163	0x3dc25a8e	0.09489928
164	0x3d0360e3	0.03207482
165	0xbd1379bd	-0.03600477
166	0x3e008307	0.12549983
167	0x3d851165	0.06497458
168	0xbbd3c4f8	-0.0064626895
169	0x3dd9252e	0.106027946
170	0x3e55328b	0.20820062
171	0xbde85abb	-0.113454305
172	0xbdbac54e	-0.09119664
173	0xbd8ba1ef	-0.06817996
174	0xbb9c29da	-0.0047657313
175	0x3c85a74b	0.016315123
176	0x3d15ef1c	0.036604986
177	0x3d72c9ea	0.05927459
178	0xbb9b65ea	-0.0047423737
179	0x3e30cbcf	0.17265247
180	0x3e039f26	0.12853679
181	0x3ca722d4	0.02040235
182	0xbb901f42	-0.0043982575
183	0xbdee116b	-0.11624416
184	0xbd970edb	-0.0737588
185	0x3dd17fc3	0.10229447
186	0xbcf3c43e	-0.029756662
187	0xbd29d091	-0.04145867
188	0xbdbd73b4	-0.09250584
189	0x3d4f4bb6	0.050609313
190	0xbd6298fc	-0.05532168
191	0xbd75e5d5	-0.060033638
192	0x3c96059f	0.018313227
193	0x3dc07e65	0.09399108
194	0x3d876633	0.0661129
195	0xbe2991f2	-0.1655958
196	0x3c4c0217	0.01245167
197	0xbe050bfd	-0.12992854
198	0xba99dae4	-0.0011738208
199	0x3db1af13	0.08675971
200	0xbe433871	-0.190645
201	0x3df22451	0.11823333
202	0x3da91e57	0.0825774
203	0x3d638e87	0.055555847
204	0xbc86b4fe	-0.016443726
205	0x3e07d8c9	0.1326629
206	0xbcbf26ce	-0.023333933
207	0xbe10a118	-0.14123952
208	0xbdc8ccad	-0.09804664
209	0xbdb015a2	-0.08597876
210	0xbddbe71e	-0.107374415
211	0xbd4ceafa	-0.05002878
212	0x3cb60009	0.022216814
213	0x3d5820d3	0.05276568
214	0x3de2708f	0.11056625
215	0x3df1f135	0.11813585
216	0x3d42f61a	0.047597982
217	0xbd9169a5	-0.07100228
218	0xbe0e3e3f	-0.13890933
219	0x3e45fe4b	0.19335286
220	0xbe1818e9	-0.14853252
221	0xbdd4f258	-0.10397786
222	0xbc970490	-0.018434793
223	0xbc781282	-0.015141131
224	0xbd074bc8	-0.033031255
225	0xbb18e517	-0.0023329908
226	0x3cdbc20a	0.026825923
227	0xbd24c83f	-0.040230032
228	0x3c381b07	0.011236913
229	0x3d48c66d	0.04901736
230	0x3d2d5ba4	0.042323723
231	0x3bea475f	0.0071496214
232	0xbd4aa6fb	-0.04947565
233	0x3d3f5e9d	0.04672109
234	0xbe2e1198	-0.16998899
235	0xbb5a84be	-0.003334328
236	0xbdb4ab1a	-0.088216975
237	0x3d502bc2	0.05082298
238	0xbe2ce330	-0.1688354
239	0x3df79311	0.120885976
240	0x3d1196c3	0.03554417
241	0x3d68a164	0.05679454
242	0x3e100e67	0.14067994
243	0x3aace64a	0.001319119
244	0xbe51516f	-0.2044122
245	0x3db4f120	0.088350534
246	0xbcb05d70	-0.02152893
247	0x3b164684	0.0022930214
248	0x3d01084d	0.031502057
249	0x3d587ce4	0.05285348
250	0x3ddbc7b0	0.10731447
251	0x3ce836c4	0.028346427
252	0xbd2efbde	-0.042720668
253	0x3db0b031	0.08627356
254	0x3e48bcc5	0.1960326
255	0x3d1e8d29	0.03870884

fc3.bias f4 [64]
0	0x3a834a6f	0.001001669
1	0xbde4ebc1	-0.11177779
2	0x3c7e6353	0.01552661
3	0x3d5412cd	0.051775742
4	0xbd841e51	-0.06451095
5	0xbb199dd4	-0.002344002
6	0x3e65f300	0.22455978
7	0x3d8b19fe	0.06792067
8	0xbd49b9d0	-0.04924947
9	0x3ccb15e3	0.02479071
10	0x3e3c7626	0.18404445
11	0x3d9efc47	0.07762962
12	0x3a4e330f	0.00078658847
13	0xbb2a9d3f	-0.0026033667
14	0x3ca4f054	0.020134129
15	0x3ba70bba	0.0050978335
16	0x3d35f093	0.044418883
17	0xbd96b98d	-0.0735961
18	0x3e77487f	0.24148749
19	0x3eb38681	0.35063556
20	0x3e3f9425	0.18708856
21	0x3db47770	0.088118434
22	0x3ee44492	0.44583565
23	0x3e62ef3d	0.22161575
24	0x3d86d429	0.06583435
25	0xbddeca46	-0.10878424
26	0xbddc108c	-0.107453436
27	0xbdcb1cf0	-0.09917629
28	0x3e2a37db	0.1662287
29	0xbdbbd518	-0.09171504
30	0x3de255bf	0.11051511
31	0xbdf3f07b	-0.119111024
32	0xbda0085f	-0.07814097
33	0xbc52a6d4	-0.012857158
34	0x3e032e77	0.12810694
35	0x3e41dcf8	0.18931949
36	0x3ed9ffa4	0.4257785
37	0xbd85b418	-0.06528491
38	0xbd65cb7d	-0.056102265
39	0xbdeea189	-0.11651904
40	0xbd62a007	-0.055328395
41	0xbd842758	-0.06452817
42	0xbd421ec7	-0.047392633
43	0xbc98bb04	-0.018643863
44	0x3e9442f0	0.2895732
45	0xbd656510	-0.056004584
46	0xbda32f8d	-0.07968054
47	0x3e889108	0.2667315
48	0x3e4a2170	0.19739318
49	0x3e6c9705	0.23104484
50	0xbe09ca22	-0.13456014
51	0x3e74d092	0.23907688
52	0xbdc66966	-0.09688072
53	0xbd323f1b	-0.043517213
54	0x3d351189	0.044206176
55	0x3ecfd78f	0.40594146
56	0x3c6d7e96	0.0144955125
57	0xbd6f6e06	-0.058454536
58	0x3eab10f9	0.33411387
59	0xbe028843	-0.12747292
60	0x3dc0d021	0.094146974
61	0x3d9c8541	0.07642604
62	0x3c8bcf28	0.017066553
63	0xbe0bcdc3	-0.1365271

output.weight f4 [10, 64]
0	0xbde8f3fe	-0.11374663
1	0xbe068224	-0.13135582
2	0xbcd57f4a	-0.026061673
3	0xbde4a119	-0.111635394
4	0x3ca2075e	0.019778904
5	0x3d20a891	0.039223257
6	0xbe72daca	-0.23716274
7	0xbd50c217	-0.05096635
8	0xbd8c6921	-0.06855989
9	0xbe5e2e6a	-0.21697393
10	0x3b0520a6	0.002031365
11	0x3ec5331f	0.38515565
12	0x3c89f622	0.016840998
13	0xbd615c23	-0.05501951
14	0xbe084760	-0.13308477
15	0xbdc8c5e2	-0.09803368
16	0x3d17b5a0	0.037038445
17	0xbdfc41f5	-0.12317268
18	0xbe70cd5b	-0.23515837
19	0xbe93d097	-0.2887008
20	0x3f080e6d	0.5314701
21	0x3dded4ef	0.108804576
22	0xbdf1b012	-0.11801161
23	0x3e7e4dc3	0.24834351
24	0x3d8f3ebe	0.06994389
25	0xbdb431f2	-0.08798589
26	0xbcb4c297	-0.022065444
27	0xbd7c2d40	-0.06156659
28	0xbde4aa94	-0.11165348
29	0xbd11392a	-0.035454907
30	0xbe41bdbe	-0.18920037
31	0x3f3f96bb	0.7483937
32	0xbc7c34e2	-0.015393468
33	0xbd899257	-0.06717365
34	0xbda0c215	-0.07849518
35	0x3df14b79	0.117819734
36	0x3e00aac0	0.12565136
37	0x3d9fb1c1	0.07797576
38	0x3e86f7cb	0.26360926
39	0xbd167f80	-0.036742687
40	0x3de13bf1	0.10997761
41	0xbe1c7f2d	-0.15282889
42	0x3e1a155f	0.15047215
43	0xbe8a7ae7	-0.27046892
44	0xbe40740e	-0.18794271
45	0xbe695685	-0.22786911
46	0xbe156c8a	-0.14592186
47	0x3d57f142	0.052720316
48	0xbe4187f2	-0.18899515
49	0xbe2b6564	-0.16737896
50	0x3cb554c4	0.022135146
51	0xbce46f13	-0.027884996
52	0xbdff0a3a	-0.124531224
53	0xbe314e9c	-0.17315143
54	0xbd0dddf6	-0.034635507
55	0xbe2f024f	-0.17090724
56	0x3d6d3b53	0.057917904
57	0xbea816e4	-0.32829964
58	0xbe01141b	-0.12605326
59	0xbe29a851	-0.16568114
60	0xbdedd47b	-0.11612793
61	0x3eeb2f71	0.45934632
62	0xbd66f484	-0.056385532
63	0x3cdd7d26	0.027037214
64	0x3d689912	0.056786604
65	0x3e8e01bc	0.27735698
66	0x3de3168e	0.11088286
67	0xbea1f8db	-0.31635174
68	0x3dd7cff4	0.10537711
69	0x3e22804d	0.15869255
70	0x3e80ebe9	0.25179985
71	0x3e050f5b	0.12994139
72	0xbde6022b	-0.11230882
73	0x3eb392c9	0.35072926
74	0xbe399c30	-0.18125987
75	0xbe60983f	-0.21933077
76	0xbe18cb3e	-0.1492128
77	0x3d9b61c5	0.075870074
78	0xbdb1098e	-0.086444005
79	0xbdaf7d03	-0.08568766
80	0x3e31c8f1	0.1736181
81	0x3e941875	0.2892491
82	0xbe59c49f	-0.21266411
83	0xbd92aac2	-0.07161476
84	0x3e345adf	0.1761279
85	0xbe0e379f	-0.13888405
86	0x3eadcec2	0.33946806
87	0xbe9d010a	-0.30664855
88	0x3ea0d009	0.31408718
89	0xbde555a1	-0.11197973
90	0x3efd2344	0.49440968
91	0xbe04567b	-0.12923615
92	0xbe066693	-0.13125066
93	0x3eeb3ca6	0.4594471
94	0xbd3a57b2	-0.04549379
95	0x3bd45a9b	0.0064805276
96	0xbe079aa9	-0.13242592
97	0xbc6c4c35	-0.014422466
98	0x3c3b4df8	0.011432163
99	0xbe05bf3b	-0.1306123
100	0xbe5fb62c	-0.21846837
101	0x3e8344e5	0.256385
102	0xbe772a5d	-0.24137254
103	0xbdc2bc3d	-0.0950856
104	0x3d824407	0.063606314
105	0x3d89039d	0.06690142
106	0x3db01301	0.08597375
107	0xbd018f39	-0.03163073
108	0x3ec3efcc	0.38268888
109	0xbe06537e	-0.13117787
110	0x3d881896	0.066453144
111	0x3dbd76e9	0.09251196
112	0xbe19434c	-0.14967078
113	0xbe001eb1	-0.12511708
114	0xbe2ad3a2	-0.16682294
115	0xbd35ef98	-0.044417948
116	0x3f07cea2	0.5304967
117	0xbe15cc99	-0.14628829
118	0x3dfbcd72	0.12295045
119	0x3e026644	0.12734324
120	0x3dcb7e82	0.09936239
121	0x3e787ec5	0.24267109
122	0xbeb6c099	-0.35693815
123	0xbcce9a7d	-0.02522015
124	0xbd99f70a	-0.07517822
125	0xbda0c0ff	-0.07849311
126	0xbc16ea9e	-0.0092112105
127	0xbe347bb8	-0.1762532
128	0x3e8810bd	0.2657527
129	0x3e86253c	0.26200283
130	0x3e15864e	0.14602014
131	0xbc875998	-0.016522214
132	0xbddd5908	-0.10807997
133	0x3e198e8f	0.14995788
134	0x3ed0e1b7	0.40797207
135	0x3d854c61	0.06508709
136	0x3b1929cf	0.0023370867
137	0xbe46dac7	-0.19419394
138	0x3db06d20	0.08614564
139	0x3ec6309b	0.38708958
140	0x3e1d8d3d	0.1538591
141	0x3d713f0a	0.05889801
142	0x3ed16f92	0.40905434
143	0xbddce8d9	-0.107866
144	0xbe87b23d	-0.26503173
145	0xbd27b8fa	-0.04094789
146	0xbe529d99	-0.20567931
147	0xbe36343d	-0.17793365
148	0x3d7eb697	0.06218585
149	0x3ef984f8	0.4873426
150	0xbe48b4e7	-0.19600259
151	0x3e14fb50	0.14548993
152	0xbe343888	-0.1759969
153	0xbd913467	-0.07090073
154	0xbd892d94	-0.066981465
155	0x3d008e3f	0.031385656
156	0xbdc404e6	-0.09571247
157	0x3de5e184	0.11224654
158	0xbe8f27e8	-0.27960134
159	0xbedc9f00	-0.43090057
160	0x3d9b1ce5	0.075738706
161	0xbe3944a1	-0.18092586
162	0xbe78c0c0	-0.24292278
163	0xbe858550	-0.26078272
164	0xbd3d8c71	-0.046276513
165	0xbdd0ea37	-0.10200923
166	0xbd626ef7	-0.055281606
167	0xbb209242	-0.002450124
168	0x3decfde5	0.11571864
169	0xbe445136	-0.19171605
170	0xbe04c2bb	-0.12964909
171	0xbe2f701f	-0.17132615
172	0xbda6eadc	-0.081502646
173	0x3eaf7008	0.3426516
174	0x3f24da6b	0.6439578
175	0x3d054601	0.032537464
176	0x3e517f92	0.2045882
177	0xbdf0756c	-0.117411464
178	0x3c3631a2	0.011120232
179	0xbe2bf185	-0.16791351
180	0x3df42476	0.11921017
181	0x3d83ea37	0.06441157
182	0x3e1bf2f9	0.15229405
183	0xbe24c528	-0.16090834
184	0xbe46799a	-0.19382325
185	0x3e61e238	0.22058952
186	0x3e69907c	0.22809023
187	0x3d00b053	0.031418156
188	0xbe29e8f0	-0.16592765
189	0x3ea498e5	0.321479
190	0xbe9b9555	-0.3038737
191	0xbdc21d17	-0.09478205
192	0x3d7c10c6	0.061539434
193	0xbcd4fb14	-0.02599863
194	0xbd6b7264	-0.05748214
195	0xbcca8c24	-0.024725027
196	0x3dd37a94	0.10326114
197	0xbcdf1888	-0.027233377
198	0x3e88fb41	0.26754192
199	0xbd26aced	-0.04069226
200	0xbdff6488	-0.12470347
201	0xbe2978a8	-0.16549933
202	0xbd082f46	-0.03324821
203	0x3b3f0a9b	0.0029150608
204	0xbd190e5b	-0.037367206
205	0x3d585b90	0.052821696
206	0x3e17da84	0.14829451
207	0xbd152c18	-0.036419004
208	0x3dc52929	0.09626991
209	0xbb7c3337	-0.0038482675
210	0x3e863db0	0.2621894
211	0xbed4c658	-0.41557574
212	0xbd8d7799	-0.06907577
213	0xbd932b27	-0.07185965
214	0x3ea0b5bf	0.3138866
215	0x3e7fbe74	0.24974996
216	0xbe6d1485	-0.23152359
217	0xbd662b4e	-0.056193642
218	0xbdda41e2	-0.106570974
219	0x3d94e012	0.072693005
220	0xbdda6e0d	-0.10665522
221	0xbea90a7a	-0.33015805
222	0x3e9a60d4	0.30152
223	0xbd406484	-0.04697086
224	0x3e717be3	0.23582415
225	0xbdbbacfd	-0.09163854
226	0x3da7ad02	0.081872955
227	0xbe97a29a	-0.29616243
228	0x3e9646c4	0.29350865
229	0xbe033359	-0.12812556
230	0xbb1e568b	-0.002416047
231	0xbe30dda8	-0.17272055
232	0x3d2cf2d8	0.04222378
233	0xbe61b957	-0.22043358
234	0xbeaa2e86	-0.3323862
235	0x3f31df5a	0.6948143
236	0x3e6fd094	0.2341941
237	0x3ede72b0	0.43446875
238	0x3d134a3e	0.035959475
239	0xbe27d8e5	-0.16391332
240	0x3f011c06	0.50433385
241	0x3eb0a934	0.34504092
242	0x3d85103e	0.064972386
243	0xbe794312	-0.24341992
244	0xbd41cec8	-0.047316343
245	0xbea2fe61	-0.318347
246	0xbe5456e8	-0.20736277
247	0xbebf2ebf	-0.37340352
248	0xbd19a586	-0.03751137
249	0x3ecd73fc	0.40127552
250	0x3e3f8573	0.1870325
251	0x3c78b3ef	0.015179618
252	0x3eb857eb	0.36004576
253	0xbd5dbb28	-0.054133564
254	0x3e0f7152	0.14008072
255	0xbe83f2e3	-0.25771245

output.bias f4 [10]
0	0xba7dcc9b	-0.00096816727
1	0xbe5b90b2	-0.21441916
2	0xbdf075a6	-0.1174119
3	0x3e215bd6	0.15757689
4	0x3c0657ec	0.008199673
5	0xbe2fea46	-0.17179212
6	0xbe8daeaa	-0.2767232
7	0xbe885c75	-0.2663304
8	0x3f25f9fa	0.6483456
9	0x3ebff0e3	0.3748847
