models/trained_modelV1.pt (torch, 973791 bytes, 8 tensors)

fc1.weight f4 [256, 784]
000000 c7 32 2b bc 63 82 c0 3b 1e d7 35 bc 38 60 97 bb
       -0.010449118 0.0058749183 -0.011098651 -0.0046196245
000010 86 ea 78 3b 1d 83 44 3c 8c 5d 00 3d 8e b3 12 3d
       0.0037981584 0.0119941505 0.031339213 0.035815768
000020 f4 0b 45 3d ef 8f 53 bb 64 17 50 3c 86 0f b0 3c
       0.048107103 -0.0032281836 0.012700889 0.021491777
000030 a5 a4 bf 3b 06 c9 82 3c 7f 8f ba 3c c9 6c 13 3c
       0.0058484846 0.015964996 0.022773502 0.008998104
000040 8a a4 c6 b9 07 75 fe 3c f4 19 0d 3d b7 f8 3d 3d
       -0.00037888094 0.031061662 0.03444858 0.04637977
000050 61 1f 84 3c 37 49 84 bc 6b db 05 3a 24 18 00 3d
       0.016128244 -0.016148193 0.0005106243 0.031273022
000060 56 5d 98 39 17 7a 97 3c 55 63 e8 3b 78 b0 2c bc
       0.0002906124 0.018490834 0.0070919194 -0.01054012
000070 ce 01 cd 3c ae 4d 1d 3d 14 71 9b 3c c7 43 bf 3c
       0.025025275 0.03840416 0.018974818 0.023347748
000080 72 ef d3 3b d0 59 be 3c da 3a 08 3d 6b 32 37 bc
       0.006467753 0.023236185 0.03325925 -0.011181454
000090 80 3c 06 3d fd ae 16 3d 24 6c 3a 3c b7 c9 8f bb
       0.03277254 0.036787976 0.011378322 -0.00438806
0000a0 b9 a7 c0 3c 58 04 1d 3c dd 89 1d 3d b8 94 54 3c
       0.023517476 0.009583555 0.038461555 0.01297491
0000b0 4d a7 b0 bc c2 78 e1 3c 71 a6 32 3d b4 79 3d 3d
       -0.02156415 0.027523402 0.043615762 0.046258643
0000c0 d3 d5 e5 3c ba da 7c 3c e4 7a ba 3c 0b 05 3e bb
       0.02805606 0.015433008 0.022763677 -0.0028994705
0000d0 5b 7d 72 bc c6 d1 d9 3b cd c0 28 3c 1d 16 ad bc
       -0.014800395 0.0066473214 0.010299874 -0.021128708
0000e0 06 1e 9d bc 58 ed aa bc 2a ff 5f 3c 07 6a c3 3c
       -0.019179355 -0.020865127 0.013671676 0.023854269
0000f0 c9 a6 47 3a de 8c a7 bb fc fd c1 ba b4 80 d1 3c
       0.00076161005 -0.005113228 -0.0014800425 0.025574066
000100 88 10 20 3c 0b cc 72 bc 66 d3 dc 3a 88 61 16 3b
       0.009769566 -0.014819155 0.001684767 0.0022946317
000110 f1 b0 33 3c c8 78 9d bc dd d4 be bc cc 4e 24 3d
       0.010967479 -0.019222632 -0.02329486 0.04011421
000120 66 b3 00 bc e3 69 64 3b eb 29 25 3d cd 93 38 3d
       -0.007855272 0.0034853152 0.04032318 0.04506283
000130 02 30 01 3d 4e 33 bd bc 7e 32 d7 3c 8b 7a 33 3d
       0.031539924 -0.023095753 0.026269194 0.043818038
000140 0a 21 26 3d e9 32 37 3d 5c b4 15 3d d2 b4 4e bc
       0.040558852 0.044726286 0.036548957 -0.012616353
000150 17 2e 33 3d b5 fd a2 bb b1 24 b1 3c b7 48 a1 bc
       0.043745127 -0.004974092 0.021623941 -0.019687993
000160 b7 dc 60 bb b3 66 39 3d ca ce 43 3d aa 39 da bc
       -0.0034311244 0.045263957 0.04780463 -0.026638824
000170 77 15 cd bc 5d 0d a6 bc 11 0a 01 3d 7a 5d 0e 3d
       -0.02503465 -0.020270044 0.03150374 0.034757115
000180 92 ea 63 3c 8c 03 98 bc 28 a7 dc 3b da 03 7e 3c
       0.013910906 -0.018556379 0.0067337938 0.015503848
000190 20 54 5b bc d5 af 2e 3b 2a 63 b1 3c 8e 20 0a 3d
       -0.013386756 0.0026655097 0.02165373 0.033722453
0001a0 74 5f 15 3c 59 b4 e8 ba 99 4d 0a 3d 64 c0 0c 3d
       0.009116996 -0.0017753943 0.03376541 0.034363165
0001b0 53 63 77 3b 40 ee 20 bc 36 47 c7 3c 45 76 73 bc
       0.003774841 -0.009822428 0.024325948 -0.014859741
0001c0 12 7e dc ba d2 6b 18 bb df 19 41 bc 77 74 0e 3c
       -0.001682224 -0.0023257625 -0.011785953 0.00869476
0001d0 84 72 8c bc d3 6b 8f bc 0c e4 70 ba 24 99 6a bc
       -0.017144449 -0.01750747 -0.0009189255 -0.014318738
0001e0 3c 7d 03 bd 8f 54 d5 bc 20 8d c7 bc 35 b6 1c bd
       -0.032101855 -0.026041297 -0.024359286 -0.038259704
0001f0 ae 6b c4 bc 81 6e 21 bd 1a 8e 0a bd b1 ed b0 bc
       -0.023977127 -0.039412025 -0.033826925 -0.021597715
000200 53 1a e0 bc 93 48 2a bb 7e 9d d0 bc 3a d9 25 3c
       -0.027356302 -0.00259832 -0.025465723 0.010122592
000210 70 0f 03 bd b5 dc d6 3c b7 d1 00 3c 98 b7 1a 3d
       -0.031997144 0.026228288 0.0078625 0.037772745
000220 1d 5d e6 bb 38 66 2d 3d 78 25 16 3c 5b 4f 40 3d
       -0.007030143 0.04233381 0.009164207 0.04695068
000230 73 ee 1f 3d df eb db 3c b5 66 0e bc a0 bd 08 3a
       0.039045762 0.02684587 -0.008691479 0.00052162446
000240 31 fe 51 bb 48 bd 5d 3c d0 c1 09 3d 1e 9d 43 bc
       -0.003204238 0.013533898 0.0336321 -0.011939315
000250 d0 9c 61 3c 45 33 e9 bb ba cf 1f bd dd 35 b6 bd
       0.013770297 -0.0071167075 -0.039016463 -0.08896992
000260 c5 5b 4e bd 80 17 ac bb 71 43 93 bd 7b aa 97 bd
       -0.050380487 -0.005251825 -0.07190598 -0.074055634
000270 c2 57 50 bd 9d ea 1e bd 30 5f e4 bc 9b 1a fa bc
       -0.050864942 -0.038797963 -0.02787742 -0.030530265
000280 b5 31 3e bc 00 56 41 bc 26 72 30 bc 38 42 c5 3c
       -0.011608531 -0.011800289 -0.010769403 0.024079427
000290 29 7f 4d bb 5f 73 c0 3c d6 e4 99 3c df 3c 93 3c
       -0.003135631 0.023492513 0.018785875 0.017973362
0002a0 c1 19 b0 3b 28 4e 21 3d c0 a5 d9 3c 1d 2b bf b9
       0.005374164 0.039381176 0.026568294 -0.0003646248
0002b0 b9 cf af bb 1f 04 02 3c 29 2b 9d 3d e9 fd 1c bb
       -0.0053653386 0.007935553 0.07674248 -0.0023955053
0002c0 1d f5 61 bd 98 91 72 bd 91 8e 8a bd 00 ba cf bd
       -0.0551654 -0.05922088 -0.06765474 -0.101428986
0002d0 60 9e dd bd de af ae bd 5c 8f b7 bd bd 2a 93 bd
       -0.10821223 -0.08529638 -0.089628905 -0.07185886
0002e0 7d 26 0d be 35 74 b3 3c 25 1c 96 bb 85 90 24 bd
       -0.13784213 0.021905998 -0.004580992 -0.040176887
0002f0 33 5c 25 bd 99 4e 64 3b 4d f9 97 bc 54 86 11 bc
       -0.04037113 0.0034836887 -0.018551493 -0.008882124
000300 17 6b 17 3d e0 ed c1 3b 1f d8 34 3d db 43 17 bc
       0.036967363 0.0059182495 0.04415142 -0.009232487
000310 ed 6e 20 3b e9 16 2a 3d 13 b1 41 3d fe 4d a8 3c
       0.002448018 0.041525755 0.04728801 0.020545002
000320 f1 71 03 3d ad 30 8a 3d b7 6b 93 3c 1c 66 a0 bc
       0.032091085 0.067475654 0.017995698 -0.01957994
000330 5e fc 62 bd a5 8e c0 bd b5 23 f5 bd bf 3e 35 bd
       -0.055416457 -0.09402207 -0.11969701 -0.044249292
000340 45 a2 60 bd e8 4d c7 bd e5 59 80 bd 98 a7 96 bc
       -0.054842252 -0.09731656 -0.06267146 -0.018390462
000350 cc 69 80 bd 08 3b d6 3d 24 eb a3 3d d9 8e 8b 3d
       -0.06270179 0.10460478 0.08003834 0.068143554
000360 fe 30 72 bd 75 1d c8 3c fe 64 ae 3d 38 ee 83 3d
       -0.059128754 0.024428109 0.085153565 0.06441921
000370 1d 34 95 bb 94 a4 ff bc 4b f3 79 3c f1 d1 9b 3c
       -0.0045533315 -0.031206407 0.0152557595 0.019021006
000380 ed 14 3b 3d d4 da 57 3d d3 1a 4b 3b 27 dc 73 3d
       0.045674253 0.052698925 0.003099133 0.059536126
000390 04 93 1b 3c 83 9e 18 3d 77 8d 57 3d db 81 b2 bc
       0.0094955005 0.037260544 0.052625146 -0.021790436
0003a0 01 ec 3a bd fb f0 94 bd 6c c0 9d bc e3 34 00 3d
       -0.045635227 -0.07272526 -0.019256793 0.031300437
0003b0 70 74 0c bb b5 26 08 be 0a 26 0f be 17 53 b3 bd
       -0.0021431707 -0.13296016 -0.13979355 -0.087560825
0003c0 2c 39 92 bd 76 39 af 3d 0a fe 0e 3d fe 8e eb bb
       -0.07139811 0.08555882 0.03491024 -0.007188677
0003d0 f6 78 5e 3c dd fd d2 3c 78 15 4b 3d de 33 0c 3d
       0.013578644 0.025755817 0.04958102 0.034229152
0003e0 ab 83 cc bc 9f 47 78 bb 6d 6a dc b8 1d 17 1d 3d
       -0.024965128 -0.0037884486 -0.00010510241 0.03835212
0003f0 57 76 18 3d 02 bd ac 3c c0 95 51 3d a5 1b ed 3c
       0.037222233 0.02108622 0.051168203 0.028943846

fc1.bias f4 [256]
000000 cb 23 9e 3c 2a e2 e6 bc 04 f9 b6 bc 16 5c c4 bc
       0.019304177 -0.028184015 -0.022335537 -0.023969691
000010 68 fa 4f 3c eb 5f 50 bd e0 53 31 bd d9 cb 0b bd
       0.012693979 -0.050872725 -0.04329288 -0.03412995
000020 51 f5 1f bd 33 e8 b5 bc 0f 4b bd 3b 25 de 93 bd
       -0.03905231 -0.022205448 0.00577677 -0.07220105
000030 01 98 97 bc e5 2b cd bc 9e a7 db 3c 4b 5c 1b bd
       -0.018505098 -0.025045345 0.026813325 -0.037929814
000040 5c 3b b1 3c f3 3e 02 bc ca 8c 0a bc 8f c7 23 bd
       0.02163475 -0.007949579 -0.008456418 -0.039985236
000050 de 9c 88 bd f1 9c 4b 3c 9b 7e dd 3b c2 90 aa bc
       -0.06670545 0.0124275545 0.0067594773 -0.020820979
000060 21 e7 53 3c ba 94 40 bc e1 d1 a3 3b 73 5e b6 bb
       0.012933523 -0.011754209 0.0049993847 -0.0055654584
000070 16 6d 0d bc b6 c2 3e bd 15 48 13 bd d8 75 2d bd
       -0.008631965 -0.04657241 -0.035957415 -0.042348713
000080 98 58 35 bc df 50 ca bb 04 7f ad bc 7f 1b df bc
       -0.011068486 -0.0061741914 -0.02117873 -0.02723479
000090 ca 4c 92 3c d4 0f 46 bd 35 2a 00 3c 27 67 39 bd
       0.017858882 -0.04835494 0.007822563 -0.04526439
0000a0 6b ed e6 3c 6b ec 92 3c 47 dd 0c bd 22 b5 e8 3a
       0.028189382 0.017934998 -0.034390714 0.0017754177
0000b0 28 19 88 bc 1a 75 8e 3a 17 49 90 3c 60 a4 2f bd
       -0.016613558 0.0010868639 0.017612977 -0.04288137
0000c0 c2 7a 9b bc ae ca 45 bd 44 1e 03 bc b6 4a 0f bd
       -0.018979434 -0.048288994 -0.008002821 -0.03498336
0000d0 3b d8 2c bd 60 c2 ee 3c 51 91 51 bd d3 86 90 bd
       -0.0421984 0.02914542 -0.051163975 -0.07056966
0000e0 93 ae 8c bc 1b 15 8e bc 73 bd 77 3a 0d 55 c7 bc
       -0.017173087 -0.017344048 0.00094505324 -0.024332548
0000f0 2a 53 ac bc 83 7a 52 3c 51 07 31 3d f3 bf 8d bc
       -0.02103575 0.012846592 0.043219868 -0.017303443
000100 f6 98 10 bd 52 5d 5b bc d2 3d 05 3c bb 08 bd bc
       -0.035302125 -0.0133889485 0.008132415 -0.023075452
000110 2a 1a 0c 3c 64 7d dc bc 33 7a 2f 3c 98 7e 0b bd
       0.00855116 -0.02691526 0.010710287 -0.034056276
000120 69 e5 c3 3c d8 2d 5a bd 44 41 0f bd b0 34 0a bd
       0.023913102 -0.053266376 -0.03497435 -0.033741653
000130 18 2c 3d bd 9f ed 58 3a 76 72 d4 bc 1a 4f 76 bc
       -0.04618463 0.00082751544 -0.025933485 -0.015033508
000140 2f 38 50 bd e6 b7 a7 bc 2a ff 0a 3c 2c f7 37 bc
       -0.05083483 -0.020473432 0.008483687 -0.011228364
000150 c0 96 ae 3c 7a 53 73 bc 35 4d 81 3c 3d d9 0c 3d
       0.021312118 -0.014851445 0.015783885 0.034386862
000160 d7 73 c2 bb 79 fb 13 bd 0f 38 78 3b ed a9 90 bd
       -0.0059342193 -0.036128495 0.003787521 -0.07063661
000170 92 10 2c 3c cf cf 14 3c 70 c1 7c bc 7c 29 d1 3b
       0.010501998 0.009082749 -0.0154269785 0.006383119
000180 e4 aa 19 bd 43 64 09 bd 2b d6 d6 bc 95 65 a4 3c
       -0.03751649 -0.033542883 -0.02622517 0.02006797
000190 20 09 b5 bc d7 7f 2d 3c 45 47 e7 3c 20 7f 2a bd
       -0.022099078 0.010589561 0.028232226 -0.041625142
0001a0 fb d9 07 bd bf c2 b8 3c 27 8f b3 3b 82 15 d7 bc
       -0.033166867 0.0225538 0.0054797116 -0.026255373
0001b0 48 a9 e9 bc 3a 84 4e bd 77 22 55 bd ed d6 76 bc
       -0.028523102 -0.05041907 -0.05203482 -0.015065891
0001c0 15 c6 52 bd 4d f8 6a bd 40 76 a6 bc 77 e7 c3 3c
       -0.051458437 -0.057365704 -0.020320058 0.023914082
0001d0 b5 94 40 bc a0 cf 51 bb a0 c1 42 bc 37 22 8f bc
       -0.0117542045 -0.0032014623 -0.011886984 -0.01747237
0001e0 a6 53 54 bc 24 03 5b bc f6 57 f9 bc 0c 5c 64 bc
       -0.0129593965 -0.013367448 -0.03043745 -0.013937961
0001f0 4b 4e ab bc 2c 20 4f bd f1 22 df bc 47 50 1c 3c
       -0.020911356 -0.05056779 -0.027238341 0.009540624
000200 de 64 04 bc 0c 1e 59 bc 47 e8 ad 3b 4b 50 93 bb
       -0.008080689 -0.013251793 0.0053072306 -0.0044956557
000210 2f 30 71 bc 54 c3 11 bd 86 17 4e 3c fe de fe bb
       -0.0147209605 -0.03558667 0.012578851 -0.0077780476
000220 b0 5b 6f 3c c7 47 cd bc 24 ed 90 3c 44 82 c6 bc
       0.014609262 -0.02505864 0.017691202 -0.024232037
000230 72 a8 c2 bc 08 54 99 bc 36 df 8e bd 03 72 29 bc
       -0.023761962 -0.018716827 -0.06976168 -0.010342124
000240 79 28 61 bc 70 20 6c 3b da d2 09 bd 81 bd 8f 3c
       -0.01374256 0.0036030076 -0.03364835 0.017546417
000250 5c ff 8d 3c d5 64 28 bd ca b6 9e bd 44 d3 1c 3c
       0.017333679 -0.041111786 -0.07749708 0.009571854
000260 a0 82 b3 3c ae 38 18 bc 78 12 dc 3c 2c a7 3a bd
       0.021912873 -0.009290857 0.026864275 -0.045569584
000270 4a 7c 93 bc 75 cf 7a bc 00 4f 97 bd c4 bf d7 bc
       -0.018003602 -0.015308251 -0.07388115 -0.026336558
000280 2e ae 8d bc 35 95 37 bc 0f 5c 91 3c 5e 39 90 b9
       -0.01729497 -0.011205007 0.017744092 -0.00027508562
000290 09 64 de bc 72 ca 8f bc 17 4f 7c ba 41 e4 bc bc
       -0.02714731 -0.017552588 -0.00096248224 -0.023058059
0002a0 ec e0 a7 bc df a0 bf 3b f2 96 56 bc 45 b8 82 bd
       -0.020492993 0.0058480348 -0.013097512 -0.06382803
0002b0 b9 61 8c bd 40 97 fb bc 8c 5a 1a bd 5e 87 3f bc
       -0.068545766 -0.03071177 -0.03768401 -0.011689989
0002c0 57 ef e2 bb 78 d7 b4 bb b2 83 73 bd d6 ad f0 bc
       -0.006925504 -0.00551885 -0.059451766 -0.029379766
0002d0 e2 7a 68 bd f8 20 42 3b 0f 39 5c bd ae 04 5f 3c
       -0.056757815 0.0029621702 -0.053765353 0.013611956
0002e0 66 c3 7b bd 17 c0 2e bd 40 ae a4 3c 13 54 fd 3b
       -0.061465643 -0.04266366 0.02010262 0.0077309697
0002f0 15 d8 5c bd 4a 3a c9 3b 37 f1 81 3c a7 73 2d bd
       -0.05391701 0.006140982 0.01586209 -0.042346623
000300 46 9e fd bc da 81 26 bd 95 b8 10 bd 94 68 17 bd
       -0.03095926 -0.04065118 -0.03533228 -0.036964968
000310 9b 5c c4 bc 62 35 8f bc ee 46 2a bd cf 1a 04 bd
       -0.023969939 -0.01748151 -0.04157155 -0.03225213
000320 45 82 42 bd 0b 25 22 bd ea 40 24 bd cb 5a 50 bd
       -0.047487516 -0.03958611 -0.04010097 -0.050867837
000330 bd 7e 9b bc 3e e4 c2 3b 86 29 83 bc 95 e6 a9 3c
       -0.018981332 0.0059476187 -0.01601101 0.020739833
000340 38 20 da bc 3a 40 6a bc 51 dc fa bc fb 28 89 bd
       -0.026626691 -0.014297539 -0.030622633 -0.066972695
000350 a5 5d 00 3d 01 ec 88 bc f3 67 ed 3a 2a c2 3b bd
       0.031339306 -0.016714098 0.0018112644 -0.045839466
000360 55 db ab bb 7a 31 90 bb 18 00 64 bb 93 77 80 bc
       -0.0052446523 -0.0044004293 -0.0034790095 -0.015682017
000370 20 f5 0d 3d 83 ae 84 3b f4 3f 3c bd d1 71 15 bd
       0.034657598 0.0040491237 -0.045959428 -0.036485497
000380 63 87 3b bd a7 12 01 bd dc 68 b5 bc d9 32 d3 bb
       -0.04578341 -0.03151193 -0.022144727 -0.0064452705
000390 81 e8 20 bd c1 c1 d6 3c 07 95 ef bc a2 0f 7b bc
       -0.039284233 0.026215436 -0.029245866 -0.015323551
0003a0 be 6a 33 bc 08 ec 04 bd ce 5a 2b 3a fe 03 8a bd
       -0.010950742 -0.03245166 0.0006536663 -0.06739043
0003b0 9c 69 2b bd 21 9f 75 3c 30 d3 f2 bc 75 c3 0a bd
       -0.041848764 0.014991553 -0.029641718 -0.03387781
0003c0 9b 57 a4 bc 2c ec 8f bd 16 58 7e bb 2b ae b3 bc
       -0.020061305 -0.07027468 -0.0038809828 -0.021933636
0003d0 ff be 0b 3a d2 78 87 bd f7 de c1 bc d4 8d 50 3b
       0.000533089 -0.066148415 -0.023665888 0.0031822817
0003e0 40 05 1b bc 79 a8 cf 39 26 36 38 bd 98 27 e9 39
       -0.009461701 0.0003960764 -0.044973515 0.00044470723
0003f0 8b 10 bb bc 6a 57 97 3c e4 4d ae bc 1d e4 d4 bc
       -0.022835037 0.0184743 -0.021277376 -0.02598768

fc2.weight f4 [128, 256]
000000 ee 83 04 3a 22 c4 5b bd f8 0a 5c 3d ed 73 94 bd
       0.00050550594 -0.053653844 0.053721398 -0.072486736
000010 d1 c4 f9 3b f7 2b d0 3a 5e 00 04 3e f9 4a a6 bc
       0.0076223393 0.0015882243 0.12890765 -0.020299422
000020 91 0b 37 3d cd ae 2c 3e 2d 7f 0e 3e 96 6d 77 bd
       0.044688765 0.16863556 0.13915701 -0.060407244
000030 d4 76 dc bb ce 68 39 bc 66 97 9e 3d 37 7a 34 3d
       -0.0067280326 -0.011316491 0.07743721 0.044061866
000040 95 87 3d 3e e4 40 47 3d 4a 7c 81 3d 1c b3 05 3e
       0.18508752 0.04864587 0.063225344 0.13056606
000050 85 32 09 3d 8e 9f 5c 3d d7 10 b2 3c 2f e9 0f be
       0.033495445 0.0538631 0.021736545 -0.14053796
000060 b5 d4 c5 3d 6e ee 68 bd fa b4 c8 bc 03 45 84 bc
       0.09659711 -0.05686801 -0.024500359 -0.016146189
000070 b6 d6 9f 3d 82 d7 6e bd 0b 36 30 bd 82 2b 66 3d
       0.07804625 -0.058310993 -0.04302029 0.056193836
000080 36 67 00 3d 6a c5 89 3c cf d0 05 bd fd 2c 0b bd
       0.03134843 0.016817767 -0.03266984 -0.03397845
000090 5c d4 d7 3d c5 5d 88 bd 4a d0 f4 ba d3 cb 77 3d
       0.10538551 -0.0665851 -0.0018677798 0.060497116
0000a0 d6 b4 9f bc 8d 20 a4 bd 7e b1 32 3e d2 6f 0b bd
       -0.019495409 -0.08014021 0.1745052 -0.034042187
0000b0 e4 40 dc bb bf 30 0d bd 71 84 88 bc 3a 2e 25 bd
       -0.0067216028 -0.034470316 -0.016664715 -0.04032729
0000c0 2d c5 4b bd 62 01 54 bc 8f 8c 97 bc 17 ac 82 bd
       -0.04974859 -0.012939783 -0.01849964 -0.0638048
0000d0 fc 40 5d 3e 5e bf b4 bd c5 25 5f 3e 2a c4 c0 bd
       0.21606821 -0.08825563 0.21791752 -0.09412415
0000e0 54 14 46 bd 8f f4 1c be b2 e2 9a 3d 5e 08 4a 3d
       -0.04835923 -0.15327667 0.0756277 0.049324386
0000f0 6f b8 ff ba ae 75 a5 bc cf 60 38 3e 91 90 df 3c
       -0.0019509922 -0.020197716 0.1800568 0.027290614
000100 f5 03 9a 3c 43 04 5e be fb 6f 9f 3d c2 88 18 bd
       0.018800715 -0.21681313 0.077850305 -0.037239797
000110 a1 59 5a bd a8 36 9e bd e5 52 99 bd 7e d8 a2 bc
       -0.053308133 -0.077252686 -0.07486514 -0.019878622
000120 81 0b 8f 3d fb b2 1b 3d 2a 7b 74 3c 64 2c 2c be
       0.06984616 0.038012486 0.014921943 -0.16813809
000130 49 8b 93 bc d0 1d e8 ba 9b da 91 be 20 7d 12 3d
       -0.018010752 -0.001770908 -0.28487095 0.03576386
000140 4f a9 a2 bc 58 eb d4 bb 45 1a 0a bd 14 40 5d bd
       -0.019856123 -0.0064977817 -0.03371646 -0.054016188
000150 57 3d 84 3a fd 83 0d 3d 9d e2 94 3c 4e eb 0d 3e
       0.0010089081 0.034549702 0.018174464 0.13859293
000160 8a 9d 06 be 16 67 0e be ed 98 b8 bb 5f e5 ca bc
       -0.13146034 -0.13906512 -0.0056334645 -0.024767576
000170 23 92 6f 3d 01 28 9b 3c e1 0f 5c bb aa c7 0d bd
       0.058488976 0.018939974 -0.00335788 -0.034614243
000180 46 6e 94 3d b5 51 26 bd fe a9 75 bd bc 13 3d bd
       0.072475955 -0.040605266 -0.05997657 -0.0461614
000190 92 6b be 3c 52 b2 cc ba 64 81 02 3d 4b ba ad 3c
       0.023244653 -0.0015617108 0.031861678 0.021206995
0001a0 4e 25 83 3d cb cb a6 bd 2a e7 26 3d 8c 24 4d bc
       0.064036 -0.08144339 0.0407478 -0.0125209205
0001b0 0b 37 13 3d 75 7f f7 bc 67 2c 27 3d 16 22 0c 3c
       0.035941165 -0.030212143 0.04081383 0.008553049
0001c0 3c 7b de bd d6 e8 8b 3e a4 e5 69 bc a2 a0 72 3d
       -0.10863349 0.27326077 -0.014275942 0.059235223
0001d0 b0 95 66 be ca ec ed 3c 1e 8b 95 3c 87 88 43 bd
       -0.22518039 0.029043574 0.018254813 -0.047737624
0001e0 80 4b 91 bc 79 75 95 ba b3 07 47 3d 44 36 3a bd
       -0.017736197 -0.0011402807 0.048591327 -0.045461908
0001f0 d4 4e 7e bd 4e 8d 8e 3d d6 99 cd bd 55 e4 8c bd
       -0.062086895 0.069605455 -0.100391075 -0.068794884
000200 82 9a 01 3d 21 b4 06 be 31 55 fc bd ac 55 66 3c
       0.03164149 -0.13154651 -0.123209365 0.014058512
000210 05 3b 75 bd af 9e c7 3d 91 31 c0 bd 87 a8 57 bd
       -0.05987074 0.09747063 -0.09384454 -0.052650955
000220 95 7e 1d 3c bd fd 34 3d 9d 37 42 bb 07 7a d6 3c
       0.009612699 0.044187296 -0.00296352 0.026181234
000230 7c a6 b4 3d 03 3c 8f 3d ab 8d 2f bc 71 47 7f 3d
       0.08820817 0.06993868 -0.010714929 0.06232399
000240 8e 73 db 3b f7 75 94 3d 03 1f cd 3d 82 d2 87 3d
       0.006697125 0.072490625 0.10015681 0.06631948
000250 59 7c 64 3e 6d 86 0f 3e 7f f8 e9 bd 3f 78 9f 3c
       0.2231306 0.14016123 -0.1142435 0.019466517
000260 c6 25 07 3c ed 6f 71 bd 86 a5 6e bd 44 48 a1 bd
       0.008248752 -0.05894463 -0.058263324 -0.07875112
000270 0c ed 2e 3d 5c 4e ef 3d fe 6e bc bc 55 6c 64 3d
       0.042706534 0.11684868 -0.023002144 0.055767376
000280 27 f7 07 be 16 8c 00 3e 7a 2d 23 3b be e2 6c 3d
       -0.13277875 0.12553439 0.0024898932 0.057833426
000290 9e b2 12 be 30 38 89 3d 08 7e 81 be da 44 b8 bc
       -0.1432595 0.0670017 -0.25291467 -0.022493768
0002a0 06 6c de bd e9 20 08 be a6 19 ce bc 21 44 bc bc
       -0.108604476 -0.13293804 -0.025158715 -0.022981705
0002b0 bb 07 e2 bc b6 4a 8e bd eb 22 a1 3d c8 42 20 3b
       -0.027591577 -0.06947844 0.07867988 0.0024453867
0002c0 66 19 ea bd fc de f0 bd d7 c7 c0 bd f7 83 b4 3d
       -0.114306256 -0.11761281 -0.094131164 0.08814233
0002d0 7d 99 fe 3d c0 62 cb 3c a5 7b bb 3c b1 1a ea bd
       0.12431619 0.024827361 0.022886107 -0.11430872
0002e0 2b 33 3e 3e 1a c7 bb bc 05 0f 03 3e 02 ea 0e 3d
       0.18574207 -0.022922087 0.12798698 0.034891136
0002f0 36 c6 1d 3d ea e6 1c be ee 2b ff bd 26 32 38 bd
       0.038519107 -0.15322462 -0.12459551 -0.0449697
000300 4a 97 71 bd e4 80 0a 3d 72 3a 11 3d 80 f2 f6 3d
       -0.05898217 0.033814326 0.03545613 0.12057972
000310 21 a8 52 3e 38 82 af bd 46 cd 4a 3c 4d 83 cf bd
       0.20571949 -0.08569759 0.012378043 -0.101324655
000320 18 94 cb 3d 0c 48 65 bd 2e 91 e1 3b 46 17 13 3e
       0.09940356 -0.055976912 0.006883762 0.14364347
000330 2b 1f c4 3c 71 66 c5 bd 64 fe 0c be 02 9d 39 bc
       0.023940643 -0.0963868 -0.13768917 -0.0113289375
000340 38 c4 21 3e 6b 54 59 3d 1b 2a b4 bd 1b 3d d1 bd
       0.15797508 0.053059023 -0.087970935 -0.10216733
000350 7f 92 86 bc 92 72 90 bd b2 19 54 bc 3c 37 53 3e
       -0.016427277 -0.070531026 -0.012945579 0.20626539
000360 8b c6 1a bd 93 41 ab bd c5 74 4a be ea 5f 0b 3e
       -0.037787 -0.08362117 -0.19771107 0.13610807
000370 e9 c3 97 3b 25 6a 38 3b 97 2a e2 bd 30 21 ed 3c
       0.0046315086 0.002813944 -0.110432796 0.02894649
000380 c0 85 4d bb b9 52 c2 3c fc cc 0e bd e3 38 e5 3c
       -0.0031360239 0.023721086 -0.034863457 0.027981227
000390 fd 50 94 bc 83 f0 c0 bc 9a 59 94 3d f6 fb 2e bd
       -0.018105024 -0.023552185 0.07243653 -0.042720757
0003a0 e7 36 0a 3d 4f 7f 6b bd b9 65 91 3d c6 1b a3 3d
       0.033743765 -0.057494458 0.0709948 0.07964282
0003b0 d4 4d 86 bd d3 e8 5b bb e4 ba 42 3e 23 a9 1c 3d
       -0.06557813 -0.0033555522 0.19016606 0.03824724
0003c0 46 e0 bd bc df 14 a9 3d 69 3d 8c bc 80 76 6c bd
       -0.023178231 0.08255934 -0.017119126 -0.057730198
0003d0 5d c7 7b bb a1 3f 1c 3d 17 b4 71 3c c5 15 ba bd
       -0.003841839 0.03814662 0.014752409 -0.090861835
0003e0 82 12 14 bd 0d 59 ab 3d e9 c6 c0 3d 8d 96 60 bc
       -0.036150463 0.083665945 0.09412939 -0.013707769
0003f0 4c 9f a5 3d e0 d2 1e be 9c de f5 bc d5 6e 1f 3d
       0.08087024 -0.1551013 -0.030013375 0.038924057

fc2.bias f4 [128]
000000 bf f4 08 be a4 e8 3e bd c9 ef 91 3d 88 a6 91 bb
       -0.13374613 -0.046608582 0.071258135 -0.004444901
000010 bc b1 2c bd 9a 16 a0 3c c8 be e8 bd d4 62 4d bd
       -0.04216169 0.019542027 -0.11364514 -0.050143078
000020 0c ef c7 3d ec f9 dc 3d d7 3c 4f bc a9 8c 23 be
       0.097623914 0.10789856 -0.012648783 -0.15971626
000030 f1 17 72 3e c2 f5 a7 3d 31 28 14 bd 8a 39 d3 3c
       0.23641945 0.082011715 -0.036171142 0.025784273
000040 fd 0f b1 bc 30 a8 55 bc e5 1e 13 bd 8b 87 5a 3c
       -0.02161407 -0.013040587 -0.035918135 0.01333798
000050 69 c8 8e 3d 2b d0 13 bd 3d 2a 93 bb 04 38 3d 3e
       0.06971819 -0.036087196 -0.004491119 0.184784
000060 4c a0 f2 bd 7f 11 b0 bd fa 56 f1 3c 0a 71 37 bd
       -0.118469805 -0.08597087 0.029460419 -0.044785537
000070 f6 c9 76 3d 3a 14 d0 3d 89 86 30 bd 85 a2 41 bd
       0.0602512 0.10160108 -0.043097053 -0.04727413
000080 95 d9 85 3c 0b 3b ab 3e a8 d3 d4 3d 7e d1 e1 bd
       0.016339103 0.33443484 0.10391933 -0.110262856
000090 a5 6d 3b bd 20 f2 8b bd ae b2 f2 3d 5d 68 bf bd
       -0.045758862 -0.06833291 0.11850487 -0.093460776
0000a0 8d 62 3d 3d d8 00 a5 bd 32 4a 21 3d ae 2f 5d bd
       0.046236563 -0.080568016 0.0393774 -0.05400055
0000b0 48 06 7b bb e8 94 95 3b 9a 3e 47 bd 46 82 e2 bd
       -0.0038303304 0.00456487 -0.048643686 -0.11060004
0000c0 61 41 0f 3d 70 6f 3c 3d f3 43 3d 3c 82 37 3d 3e
       0.03497446 0.046004713 0.011551845 0.18478206
0000d0 51 d3 25 3d ae fb 43 bd b3 d2 8e bb db bf 40 3d
       0.04048473 -0.047847442 -0.0043586134 0.047057968
0000e0 62 09 b4 bc a1 72 71 3d 2f fc 8b bd 76 de 5e 3a
       -0.02197713 0.05894721 -0.068352096 0.0008501777
0000f0 29 82 8f 3d 0a b0 3c 3e 6b 13 51 bd c8 49 f4 3d
       0.07007248 0.18426529 -0.05104391 0.11928135
000100 e5 bd d5 bc 26 fe a0 bd 79 33 34 3d eb b3 d9 bb
       -0.026091525 -0.07860975 0.0439944 -0.0066437623
000110 f4 c3 3c 3e 3e 2d 22 be 29 eb 6f 3b a2 ab c6 3c
       0.18434125 -0.15837571 0.0036608672 0.024251763
000120 eb fc 9b bd ea 84 c6 bc a1 2f 03 3e 4d 8d 50 bd
       -0.076166 -0.0242333 0.12811138 -0.050916005
000130 b5 e5 53 3a d9 16 d9 3d c7 fa a5 3d c8 1a 5a bd
       0.000808324 0.10600061 0.081044726 -0.053248197
000140 a6 17 3a 3d cf 9c 50 3c 17 84 1e 3d 16 19 3a bc
       0.04543271 0.012732699 0.03870019 -0.01135852
000150 24 89 2a bd 68 d9 85 ba 1f 5b 97 3d dd 06 8d 3c
       -0.041634694 -0.0010211887 0.07390427 0.017215187
000160 8a c0 7f 3e 0b fa d5 bd 83 75 06 3d 31 de 1d 3d
       0.24975792 -0.104480825 0.03282691 0.038541976
000170 e2 36 92 3c ad ca b2 bd 21 96 51 bb 59 84 a8 bc
       0.017848436 -0.087300636 -0.0031980353 -0.02057092
000180 38 02 a3 3d 1c 07 c7 bd 2a 47 ea 3c 58 6d 13 bc
       0.079594076 -0.09718153 0.028598387 -0.008998238
000190 6c 70 15 be 8a 1e 42 bc 30 de cd bb dd a9 fb 3d
       -0.14593667 -0.011848101 -0.0062825903 0.12288258
0001a0 63 0b fb 39 86 93 25 3e a9 35 de 3c 9e bc c1 bd
       0.00047882934 0.16169557 0.027125197 -0.09459804
0001b0 f9 fb 16 bc 25 f7 4f 3d da 6d 83 3d 3f d9 48 bd
       -0.009215348 0.050772805 0.06417437 -0.049035307
0001c0 84 17 45 3e 68 52 9f 3d fc aa e5 3d 40 8b 69 bd
       0.19247252 0.077793896 0.11214253 -0.057017565
0001d0 9a 57 ef bd 18 7e 0a bd 4e e6 ed 3c db 80 9e 3c
       -0.116866305 -0.03381166 0.029040482 0.019348552
0001e0 8c fb 56 3d 0b 08 90 3d 32 87 c0 bc 26 b1 8f 3c
       0.052485988 0.07032784 -0.023501966 0.017540526
0001f0 44 7c c0 3c d0 ad d0 3d 96 6a 6f 3d 97 e2 ec bd
       0.023496754 0.10189402 0.058451258 -0.11566656

fc3.weight f4 [64, 128]
000000 46 31 f7 bd 22 7d 39 be 7a b2 60 3e 87 33 27 bd
       -0.12069945 -0.1811414 0.21943083 -0.040820625
000010 7f e2 4e be fa 82 13 bd 7d 20 5d bd 4f 5c 17 3e
       -0.20203589 -0.03601358 -0.05398606 0.14781307
000020 02 7b 5e bd 0b 77 96 3d 74 e0 36 bd 29 6d 94 3d
       -0.05431653 0.073469244 -0.04464765 0.07247383
000030 2c 50 60 be da 9f 22 3e b9 24 50 3c 4d d3 49 3d
       -0.21905583 0.15881291 0.012704068 0.049273778
000040 b4 77 c6 bb 5a f6 7a 3d 83 41 20 bd e5 29 cc bd
       -0.00605675 0.061270095 -0.039124977 -0.09968928
000050 d7 c6 3a 3e 9a 09 cd bd 1d 08 f0 bd cf 0c df 3c
       0.18239914 -0.10011597 -0.117202975 0.027227787
000060 2a 47 45 be a1 6f 9e bd b3 de 57 3e 7a bd ee 3a
       -0.19265428 -0.07736135 0.21081047 0.0018214427
000070 cb 52 57 bd a4 b5 e6 bd 02 b4 b8 bd 48 b3 93 3e
       -0.052569192 -0.11265114 -0.09018709 0.28847718
000080 cf 5f 9f 3d 17 6c a1 bd de d8 50 3e 0c 19 92 3d
       0.07781946 -0.078819446 0.20395228 0.071336836
000090 8a 47 ac bd 32 23 8b 3d f4 c6 03 3b 81 f1 29 3b
       -0.084120825 0.06793822 0.00201076 0.00259313
0000a0 ec c6 4c bd 42 56 3e 3e 1b 0a 92 3d 59 06 37 be
       -0.049994394 0.18587592 0.07130834 -0.17873515
0000b0 88 ae f9 bc b4 37 84 bd 8c c5 e6 bd d0 25 82 3d
       -0.03047873 -0.06455937 -0.11268148 0.063548684
0000c0 49 c9 96 bc 35 d5 28 bd f3 34 86 bd 90 b7 0f bc
       -0.018406527 -0.041218955 -0.06553068 -0.008771792
0000d0 7c 5e 1b bc 20 2c 5e 3e 01 49 98 bd 64 cf 2c be
       -0.009482976 0.2169652 -0.074357994 -0.16875988
0000e0 f5 f3 99 bd 57 ef 08 3d e6 92 89 3e e8 f6 57 3d
       -0.07517234 0.033431377 0.26869887 0.052725703
0000f0 27 e0 64 bd 83 61 69 bd 03 ab 2a be 31 b5 40 3c
       -0.05587783 -0.05697776 -0.16666798 0.011761949
000100 ea 05 3b be 20 39 49 3d 09 f0 95 3d 8e f1 82 bd
       -0.18263975 0.049126744 0.07321174 -0.06393729
000110 ed ba a2 3c f6 57 da bd c9 59 17 be dd 9e b7 bd
       0.019864524 -0.106613085 -0.14780344 -0.08965848
000120 5a fd 1d 3e c8 71 73 bd b4 28 e0 bc 6a 32 3e 3e
       0.15428677 -0.059434682 -0.027363159 0.18573919
000130 2c fe d6 bc 7e f7 bc bd 6a 7a 00 bc d2 ef 9e bd
       -0.026244245 -0.09226893 -0.007841686 -0.07760586
000140 be f4 41 3d 23 d5 15 be 01 06 85 3d 7d 1f ae bd
       0.047352545 -0.14632086 0.06495286 -0.085021
000150 4a 91 9e bd 6c 1a b9 bd a0 a1 bd 3d 76 fb d2 bd
       -0.077425554 -0.09038243 0.09259343 -0.103018686
000160 d8 f5 3d 3c eb 5b c3 bd bb f9 6a bd 9f cb c2 3d
       0.011594258 -0.09539016 -0.057367068 0.09511494
000170 31 78 35 bc 06 70 8b 3d f1 b6 56 bd 48 36 fa 3d
       -0.011076019 0.06808476 -0.05242056 0.122173846
000180 a2 1f 89 3e f5 6b c4 3c ef ae 82 bd ff 75 9d bc
       0.26781946 0.02397726 -0.06381022 -0.019221304
000190 e1 4a 92 bd af 5b 03 be 33 75 94 bd ea db 1a 3e
       -0.07143188 -0.12827943 -0.072489165 0.15122953
0001a0 73 04 ab 3c 41 dd df 3d ea 64 e2 3c 7f 82 22 be
       0.020876145 0.10930873 0.02763601 -0.15870093
0001b0 a3 24 f4 3d f2 63 ab 3d f5 4a 29 3e 8b 42 4d 3e
       0.119210504 0.083686724 0.165325 0.20044915
0001c0 5a fc 82 3d 6b 42 1a 3c 0f 24 fb 39 bc 4e c4 3d
       0.063957885 0.009415249 0.00047901316 0.0958533
0001d0 ce f2 c5 3d ef d0 c3 3d 78 01 7a 3d df 3e 47 be
       0.09665452 0.09561335 0.061036557 -0.19457577
0001e0 f3 47 c4 3d 33 9a da bc cc d4 9e 3d 96 96 98 bd
       0.09584036 -0.026684856 0.077554315 -0.07450597
0001f0 5f a3 30 3e 99 7a de bc fc be 0c 3d 8a ac ed 3d
       0.17249821 -0.027158068 0.034361824 0.11605175
000200 aa 62 a0 b9 5d c3 0d bd 30 a2 6c 3c c3 5f 83 bc
       -0.0003059109 -0.03461014 0.014442965 -0.016036874
000210 39 aa 43 bd a5 4e 8c 3c 28 3e 06 be 86 25 c5 bc
       -0.04776976 0.017127344 -0.13109648 -0.024065744
000220 ac f1 3c bd e9 97 03 3d 3a c1 b2 bd 59 7e 50 3e
       -0.046128914 0.032127295 -0.08728261 0.20360698
000230 24 7a d5 3d ec 7b 37 bd 38 65 aa bd e9 b3 6d 3d
       0.10423687 -0.044795915 -0.08320087 0.058032904
000240 3b 5a 61 bd ac 00 a9 bc 51 f4 05 3c 71 37 28 3d
       -0.05501769 -0.020630203 0.008175925 0.041068498
000250 94 b5 c5 bd 01 f8 14 be a0 57 c3 bd b3 91 c5 3d
       -0.09653774 -0.14547731 -0.095381975 0.096469305
000260 a3 56 aa bd 2a 96 c9 bd 1d b4 fe bd 1c fb 2c bd
       -0.08317306 -0.09843095 -0.12436698 -0.042231664
000270 1a 3f 0d 3d 27 9b 8d 3d ea e8 17 3e a8 00 66 3e
       0.034484006 0.069143586 0.14834943 0.22461188
000280 03 3c 65 3c 5c d6 73 3d 1d e1 6a 3d 51 83 be bd
       0.013991359 0.0595306 0.05734359 -0.0930239
000290 e9 5c 08 be f3 33 20 be 44 66 02 bb 9e 28 70 be
       -0.13316692 -0.15644817 -0.001989738 -0.23452994
0002a0 3c 2a 3f bd 24 e2 9f bd 51 77 41 3d 75 40 c0 3d
       -0.046671137 -0.07806805 0.04723293 0.09387294
0002b0 5c 4b f8 bd ab af db bb 70 b7 b6 bd 27 f0 34 bd
       -0.12123749 -0.006704291 -0.08921707 -0.04417434
0002c0 d4 41 eb 3c 9c b7 98 3c 00 e2 98 3d 3a b9 6b 3e
       0.028717913 0.01864224 0.07464981 0.23019877
0002d0 26 97 1c bd 99 51 96 bd 70 54 f4 3b ad 2d 26 bd
       -0.038230084 -0.07339782 0.007456355 -0.040570904
0002e0 e4 f0 a4 bd 9f 59 5a 3e f7 40 80 3d e6 c5 af 3d
       -0.08053759 0.2132325 0.06262391 0.08582668
0002f0 dd 33 3d 3d dc d4 25 3e 1d 67 32 be f1 ea d6 3d
       0.04619204 0.1619448 -0.17422147 0.1049403
000300 f0 13 83 bc 89 b6 aa bc 3e 40 08 bd c2 e3 1b 3e
       -0.016000718 -0.020838993 -0.03326439 0.15223601
000310 69 8c 8e 3d 6f 0f af bd 6d 9a b2 3c d2 8e ff ba
       0.06960375 -0.085478656 0.021802152 -0.001949752
000320 fd 1c dc 3c df cd d1 bc 01 77 0f 3e 2d b3 43 be
       0.026869291 -0.025610862 0.1401024 -0.19111319
000330 b1 d9 a4 bd 07 09 28 3e 21 6d ca 3d 8e e9 7c bd
       -0.08049334 0.16409694 0.09884096 -0.061746173
000340 95 72 6e bd 9c 3e 48 3d ad f8 60 bd 94 ad 1b 3d
       -0.058214743 0.048887834 -0.054924656 0.038007334
000350 d8 55 e0 bb 55 c2 9d bc c5 26 99 3e a1 ae a0 3d
       -0.006846171 -0.019257704 0.2991239 0.07845808
000360 b4 db 23 3e c9 0b 00 bd 6b ba d2 3c aa ce f6 bd
       0.16001779 -0.03126124 0.025723657 -0.12051137
000370 8b 9d af bd 32 31 d3 bd d9 66 0d 3e 7c a4 45 bd
       -0.08574971 -0.10312118 0.13808765 -0.048252568
000380 11 e7 c4 3b 33 d1 cb bd bf 35 aa 3c 50 c3 a1 bc
       0.0060089906 -0.09952011 0.020777581 -0.019746453
000390 2c f0 4d 3d ac 11 72 3d ca ac 02 bd 12 45 1a 3e
       0.050277874 0.059098884 -0.031903066 0.1506541
0003a0 fa 2a a7 bd 7f 9f bd bc 1e cf 07 3d 10 1e 27 be
       -0.08162494 -0.023147343 0.033156507 -0.16320062
0003b0 1f 5e 6e bc 7e d8 15 bd d2 9d 20 be 5e 59 ca 3c
       -0.014548807 -0.036583416 -0.15685204 0.024700817
0003c0 97 eb 40 3e 09 1d 9c 3d 0a 2c fd 3d 2e b2 00 be
       0.1883987 0.076227255 0.123619154 -0.1256797
0003d0 a3 dd 45 3d 75 36 ca 3d cc 99 ba 3c 7b a3 11 bd
       0.048307072 0.09873668 0.022778414 -0.035556298
0003e0 25 a9 f4 3d f5 d5 66 3e 38 62 69 3d 50 c5 85 3b
       0.11946324 0.22542556 0.056978434 0.0040823594
0003f0 c7 f8 83 bd 35 a3 53 3c cd c0 79 3d a0 58 3b 3a
       -0.06443935 0.01291733 0.060974885 0.000714669

fc3.bias f4 [64]
000000 c5 c9 c1 3c 02 ab 91 3e ed f8 71 bd 03 27 f1 3d
       0.023655782 0.2845078 -0.059075285 0.11775019
000010 22 c9 1a ba f8 0a 54 3e e5 f9 30 bc 1d 70 c4 bc
       -0.0005904605 0.20707309 -0.010801767 -0.023979241
000020 22 97 6c 3e f8 b6 49 3d f5 6b 4c bd d4 d1 18 3d
       0.23104528 0.04924676 -0.049907643 0.037309483
000030 ec 07 cc 3e a2 56 80 bd 15 bb db 3d 3a 3f 8f 3e
       0.39849794 -0.06266524 0.107290424 0.27977926
000040 3e 92 14 bc 3d 61 b3 bd 6b 39 9e bc c3 6d 9a 3e
       -0.00906807 -0.08758781 -0.019314488 0.30161867
000050 0c 9d a8 3d 4b e9 78 bd 7b f3 1b 3d f8 fd a3 bd
       0.08233079 -0.06076936 0.038073998 -0.08007425
000060 d0 89 ad 3e 8d 60 3f bc ad 02 93 3e 75 41 84 bd
       0.33894205 -0.011680734 0.2871298 -0.064577974
000070 46 a9 ab bd ec 22 63 3e d3 8d 53 3d 55 ca c0 3d
       -0.08381896 0.2218129 0.051648926 0.09413592
000080 1c fc 87 3e c2 19 37 3d ea 28 44 3d a6 a5 2f bd
       0.26559532 0.0447023 0.04789058 -0.042882584
000090 cc 53 28 3c 7f 82 80 3d 14 81 05 3d 3b 22 94 bc
       0.010273885 0.0627489 0.0325938 -0.018082729
0000a0 01 b2 31 3e 0c e4 8e 3e 7d ba fd 3d 6d d6 77 3d
       0.1735306 0.2790836 0.123890854 0.060507227
0000b0 77 75 d0 bd ac 52 1c 3d 5a 7a 02 be 3f 38 82 3d
       -0.10178655 0.03816478 -0.12741986 0.06358384
0000c0 6a 00 d6 bc cc 57 d9 3d 8f 52 c9 3e cd b9 b0 3c
       -0.026123244 0.10612449 0.393208 0.021572972
0000d0 75 6b 53 bc e2 61 b9 bd 49 04 ac 3d 39 9d c3 3c
       -0.012904038 -0.09051873 0.08399255 0.02387868
0000e0 54 56 89 3d a9 05 c7 3c 04 24 9c bd 60 8c 00 3e
       0.06705919 0.024294691 -0.07624057 0.12553549
0000f0 ec ec c3 bd 5f 7b 78 3e 0e c1 8d bd 4f 3b a0 3e
       -0.09566674 0.24265812 -0.06921588 0.3129525

output.weight f4 [10, 64]
000000 58 44 1f be 98 29 79 be b3 ba a0 3d 62 f7 63 3e
       -0.15553415 -0.24332273 0.0784811 0.22262338
000010 a0 6d 62 be 6b b9 e0 be db b9 fe bd a1 cf c4 be
       -0.22112131 -0.43891463 -0.12437793 -0.38439658
000020 fa 08 89 3d 10 c0 99 be aa b6 df 3d 91 28 bb 3e
       0.06691165 -0.30029345 0.10923512 0.36554387
000030 ac 2c d4 3e a9 02 8c be 6f 8c 26 be f1 a7 6a be
       0.41440332 -0.2734578 -0.16264509 -0.22915627
000040 50 82 bc 3e e3 88 1e 3f cf 2c 8b 3e b3 ee 28 be
       0.3681817 0.6192762 0.27182624 -0.16497307
000050 ce 0a 1d 3e 33 26 08 bd 28 87 20 be be 60 a5 be
       0.15336153 -0.033239555 -0.15676558 -0.3230037
000060 6a 3a f6 bd 43 c7 d9 bd 49 6e be 3e aa a5 4b bd
       -0.1202286 -0.10633709 0.37193516 -0.049718536
000070 c9 73 4e bd 7e 36 ec 3d 80 75 cb 3d 30 c9 d0 3e
       -0.05040339 0.11533831 0.09934521 0.40778494
000080 d0 e8 d6 3d 51 3b a2 3b 2d c2 fd bd 04 4b 22 be
       0.10493624 0.0049509187 -0.12390552 -0.15848929
000090 28 46 1d be 0e 86 4c 3d 35 fe 6f 3e 35 50 8a 3e
       -0.15358794 0.049932532 0.23436816 0.27014318
0000a0 cf 7f 6a be 9b c2 ac 3d 7a 9f 33 be e3 f7 8e 3e
       -0.22900318 0.084355555 -0.17541304 0.27923498
0000b0 be 2f b7 3d d9 3c 44 be ef 1c 22 3c 02 4c ff bc
       0.08944653 -0.19163837 0.009894594 -0.031164173
0000c0 1b 28 80 3c 70 93 db bd 9f ec 9a be 21 74 00 be
       0.015644124 -0.10721481 -0.30258653 -0.125443
0000d0 51 ad b1 bd 87 24 13 3d ea b2 2e be 5c 9c 68 3e
       -0.086756356 0.035923507 -0.17060438 0.22715896
0000e0 ac ec 2a be 4f ac 2b be 8b 72 70 bd 54 e8 81 be
       -0.16691846 -0.1676495 -0.058702987 -0.25372565
0000f0 df 5b ca 3d 6a d9 0f be c8 7f db 3d df ec b7 be
       0.09880804 -0.1404778 0.10717732 -0.35922906
000100 46 15 47 be b3 1d 40 be 0c 7a 2a 3f b0 29 6d be
       -0.19441709 -0.1876133 0.6659248 -0.23160434
000110 c6 a9 19 be 0b b7 00 be 25 08 33 bd 68 46 ac 3e
       -0.1500617 -0.12569825 -0.04370894 0.33647466
000120 07 6c ab bd 31 34 2c 3d 7a e0 50 3d 03 41 ec 3b
       -0.08370214 0.04204196 0.050995328 0.0072098984
000130 c8 36 6e be bc a5 74 be 43 bb 8b 3e c2 0f 34 3e
       -0.23263085 -0.23891348 0.27291307 0.17584136
000140 9e c9 e9 bd b0 ef 5c bc 8b f3 dc bd 13 29 cf 3e
       -0.114154086 -0.01348488 -0.1078864 0.40461025
000150 07 69 8b be 99 45 13 bd 63 c7 8d 3d 84 e3 ba 3e
       -0.27228567 -0.035955045 0.069227956 0.36501706
000160 42 83 d3 3d 82 e6 73 3c 13 80 2c 3e 2c 0e 35 be
       0.1032777 0.0148865 0.16845731 -0.17681187
000170 ee f6 28 3e fe e6 11 3e 64 22 c2 3c 5a 82 77 be
       0.16500446 0.14248273 0.02369804 -0.24170819
000180 42 50 4c 3e 13 db 8a 3c f7 b9 18 bc 87 41 45 3d
       0.19952491 0.016950166 -0.009321681 0.048158195
000190 46 13 b1 3e dc c2 8d be cc 38 a2 3c fb 9c f7 bd
       0.34585017 -0.27687728 0.019802473 -0.120904885
0001a0 a7 75 68 bd 01 50 88 be f5 cd f8 3e 39 8f a0 be
       -0.056752827 -0.26623538 0.48594633 -0.3135927
0001b0 3d b0 8c 3e eb 26 ab bd 38 76 1c be b3 a9 2e 3e
       0.2747821 -0.083570324 -0.15279472 0.17056923
0001c0 8a 41 31 3e 39 8b d1 3b 75 c4 45 be 74 5d 4a be
       0.17310157 0.0063947705 -0.19313224 -0.19762212
0001d0 44 97 4b 3d 79 34 35 bb 9c 4f 3b 3d 63 cc 65 3e
       0.049704805 -0.0027649684 0.04573022 0.22441249
0001e0 0e 1e a4 3d 24 57 9e 3e 24 f2 a4 bc b5 36 56 be
       0.08013545 0.30925858 -0.020134993 -0.20919307
0001f0 4d 5b 89 be bb 67 6f be ce 6e 93 bd 4e c4 60 be
       -0.2682747 -0.23379414 -0.07198869 -0.21949884
000200 d5 63 99 3e 76 99 c7 3e 2e 66 13 be 24 88 0e be
       0.29958978 0.3898427 -0.14394447 -0.13919121
000210 9b 28 18 3f 56 47 7e be 70 b7 bf 3d 1f ba 2a be
       0.5943696 -0.248319 0.0936116 -0.16672562
000220 ee 8d 99 3e 9f b6 cd 3e 9b 0c 82 bd bb 4c 30 3f
       0.29991096 0.4017839 -0.063500606 0.6886708
000230 2a 68 59 be 5d db 35 be e0 f6 3a be b6 9c 58 be
       -0.21231142 -0.17759462 -0.18258238 -0.2115353
000240 18 9c 8d be aa 6d 4a bd 0a 5d 52 3e 67 a5 8b be
       -0.27658153 -0.04942099 0.20543304 -0.2727463
000250 67 4b c5 be 56 af b8 3d d0 3c 1a 3e 4e 04 ef 3e
       -0.3853409 0.09017818 0.1506226 0.46682972
000260 44 73 02 3e 8a f6 73 be 3a dd 3b be e3 e9 05 be
       0.12739283 -0.23824516 -0.1834611 -0.13077502
000270 0e 22 12 3e 96 48 eb 3d da 87 89 ba 39 0c ea 3d
       0.14270803 0.11488454 -0.0010492757 0.114281125
000280 2d 1a 41 be b2 43 93 bd 36 84 a4 bd 93 23 93 bd
       -0.18857642 -0.07190646 -0.0803303 -0.071845196
000290 76 90 a7 3d 6e 54 54 3d 48 d5 f4 bd 7a 82 1a 3e
       0.081818506 0.05183833 -0.11954743 0.15088835
0002a0 1c 7d 8b bd 01 4c fd bd 55 e6 01 be 28 7b 93 be
       -0.06810972 -0.12368012 -0.12685521 -0.28804898
0002b0 6e d1 93 3e 51 84 67 bd 07 d4 0d 3e ba c1 e6 bd
       0.2887072 -0.05652267 0.13850413 -0.11267419
0002c0 c0 af 17 bd 76 d3 dd bd d5 2a 30 be 5c 32 25 3e
       -0.037032843 -0.108313486 -0.17203839 0.16132492
0002d0 00 3d 4a bd cf 38 93 3d f5 bc f7 bd 60 b2 b8 bd
       -0.04937458 0.0718857 -0.120965876 -0.09018397
0002e0 4a 0e 21 3d 99 a1 a8 bd bf bf 79 3e 36 9b 84 be
       0.039320268 -0.08233947 0.24389552 -0.25899667
0002f0 23 66 fb bc 6f 22 ba 3c 3a e8 9f 3d 54 1c b7 bc
       -0.030688351 0.022721497 0.078079656 -0.022352375
000300 c8 13 29 be d6 c3 97 3e 7a bc a2 be 7e e7 99 be
       -0.16511452 0.29641598 -0.3178442 -0.30059427
000310 cc 98 d1 3e 13 b3 c3 be 9d b9 2d bd b0 b7 b0 3e
       0.40936887 -0.3822256 -0.042413343 0.34515142
000320 6c 8f 2d be f6 d7 5b 3e 2d 4b 30 3d 30 63 36 be
       -0.16949242 0.21469101 0.043040443 -0.17811275
000330 9f a9 0c be 23 98 62 bd c5 e6 37 be c9 84 78 be
       -0.1373658 -0.05532087 -0.17959125 -0.24269404
000340 e9 ab bf 3a b3 0c c5 bd 10 18 c6 3e e3 75 eb 3d
       0.0014623377 -0.09621563 0.38690233 0.114970945
000350 9c ba 74 be 9c e6 25 3c 21 54 6b 3c 0e 16 bd 3d
       -0.23899311 0.010125782 0.01436332 0.09232722
000360 ff cc ad 3e 0a ab 6f 3e 78 6c 21 3e 5c 84 80 3e
       0.33945462 0.2340509 0.15764034 0.25100982
000370 f9 6f 85 be 4e af 38 be e5 1d b1 3b fb 2a 89 bd
       -0.2606199 -0.18035623 0.005405175 -0.06697651
000380 ef 93 36 be 77 d9 f6 3d dd ad 24 bd 8a 50 2b be
       -0.1782987 0.12053197 -0.04020487 -0.16729942
000390 92 ba 4f be a0 6b 83 3e 64 3e db bd 19 20 64 be
       -0.20286015 0.2566805 -0.107052594 -0.2227787
0003a0 a6 2c 9c bc 37 17 08 3f b9 21 8e be ee 42 da 3d
       -0.019064259 0.53160423 -0.27760103 0.10657297
0003b0 55 6c 1d 3e b7 25 5f 3e bb d6 87 be 64 9c 85 bd
       0.15373357 0.21791731 -0.26531014 -0.0652397
0003c0 c4 ae 60 3e dc a2 2d 3e 7e 69 14 3f 0b b1 a9 bd
       0.21941668 0.16956657 0.5797347 -0.082857214
0003d0 2c e8 be 3d 1b d1 76 3c e8 7a 4b bd 1d b5 fe 3d
       0.09321627 0.015064503 -0.04967776 0.12436888
0003e0 09 f4 48 be 20 3e 2b 3f 27 1a f7 3d 7b 77 93 be
       -0.19624342 0.6689167 0.12065535 -0.28802094
0003f0 b7 88 d4 bd fe c2 99 bd 55 99 8a 3d 8e ec cd 3e
       -0.10377639 -0.07507895 0.06767527 0.4021954

output.bias f4 [10]
000000 63 1a 76 be 99 f6 2d 3e 34 6e 07 be 46 67 9f bc
       -0.24033503 0.16988601 -0.13225633 -0.019458424
000010 a2 49 d3 bd 11 2f 01 be 3c 6a df be f5 2a 9f bd
       -0.10316779 -0.1261561 -0.43635738 -0.07771865
000020 e2 f4 3c 3f b8 a8 e3 3e
       0.7381116 0.4446466
